best_sod_model.pth (torch, 143173 bytes, 13 tensors)

enc1.conv.weight f4 [16, 3, 3, 3]
000000 57 e2 e0 bd ef f0 f7 bc 4e 3c 7b bd e2 9c 98 bc
       -0.10980671 -0.030266253 -0.061336808 -0.018629495
000010 e2 f7 0a be 1f 3b 1e 3c 48 c9 4e 3d 49 12 d6 bb
       -0.13571122 0.00965765 0.050484926 -0.0065329415
000020 9a dc 73 bd 58 76 e8 bd 2f 2c 4f be 35 5f 51 bd
       -0.059536554 -0.11350697 -0.20231698 -0.051116187
000030 ca 64 04 bd d0 ed 65 be 3d 31 f3 ba a5 80 07 3d
       -0.032322682 -0.22454 -0.0018554103 0.03308167
000040 b5 01 db bd f1 ef 13 be b9 c7 42 bd 17 7c 2d 3e
       -0.10693685 -0.14446999 -0.04755375 0.16941868
000050 7f de 70 3e 04 d2 20 3e fe 59 63 3e 5b 51 5c 3e
       0.23522376 0.15705115 0.22202298 0.2151541
000060 b6 31 53 bd 8d d3 0e 3e 4c 7c 72 3e 6b a5 46 3e
       -0.05156108 0.13947888 0.23680228 0.1939904
000070 1b fd 9f bd 7a 91 04 3e 8b 04 ea 3d fa 57 50 3e
       -0.07811948 0.1294612 0.11426648 0.2034606
000080 73 75 98 bd bd 86 f2 3d 93 a5 47 be 0a 29 9e bd
       -0.07444277 0.118421055 -0.19496755 -0.07722671
000090 32 07 c2 bd 79 10 24 3e fd 41 3c 3c 52 20 1a be
       -0.09474029 0.16021909 0.011490342 -0.15051392
0000a0 0c 18 47 bd 5d 96 65 3d 0e 54 5b bd 37 ab c2 bd
       -0.048606917 0.0560516 -0.053546958 -0.09505313
0000b0 5e 17 22 be 06 e8 43 bc 57 fe 92 bd e1 24 cb 3d
       -0.15829226 -0.011957174 -0.07177418 0.099191435
0000c0 23 99 65 3c 53 be 42 be 23 63 cb 3d b1 0d 36 be
       0.014013561 -0.19017915 0.09931018 -0.1777866
0000d0 ec 0b 7b be ea 5d 9d bd 38 c8 45 bd d1 a6 89 be
       -0.24516267 -0.07683928 -0.048286647 -0.26885083
0000e0 ed b8 83 be eb 1d bb 3c 02 9b 98 be 30 93 55 be
       -0.25727025 0.022841414 -0.29805762 -0.20856929
0000f0 65 e0 0d 3e 3f a7 25 bc 8b f5 90 bd 9e 0c 2c 3e
       0.13855131 -0.010110675 -0.070780836 0.16801688
000100 02 04 1e be fb 1c 0f bd 2a 38 3f 3e 21 89 21 bd
       -0.15431216 -0.034939747 0.18673769 -0.039437417
000110 2c 20 3c 3e 39 8a ab 3d 1e 4f 62 3e f3 4e a7 3d
       0.18371648 0.08375973 0.22100493 0.08169355
000120 89 b5 c5 3d 94 c9 90 3d d3 40 45 3d c6 97 bc bd
       0.09653766 0.07069698 0.048157524 -0.09208636
000130 ab 6a 3f be 20 77 88 bd a1 4a 16 3d 86 ad 97 3d
       -0.18693034 -0.06663346 0.036692265 0.07406144
000140 81 f2 c9 3d 94 71 4e 3e 11 5c 4e bd bb dd 1c 3e
       0.09860707 0.20160514 -0.05038077 0.15318958
000150 4f da 22 3e 97 65 40 be ae 4c 69 be d9 0e 02 be
       0.1590359 -0.18788753 -0.22783157 -0.12700976
000160 af 16 a7 be 79 ac 56 3d 3f 87 ba bd 29 e3 87 3e
       -0.32634494 0.052410576 -0.091078274 0.26540497
000170 b4 85 94 3d 72 74 93 bd 91 7b eb 3d b8 4c f8 bd
       0.07252064 -0.071999446 0.11498178 -0.12124008
000180 bb e7 72 be 12 2f 5f bc 7e 42 10 bb 88 b6 73 3e
       -0.2372121 -0.013622062 -0.0022012289 0.23800099
000190 90 23 38 3e e4 70 12 3e c7 db bd bd 02 09 93 bd
       0.17982316 0.14300877 -0.09270435 -0.071794525
0001a0 2c ce 1c 3e 5b b3 27 bd e3 08 26 be 82 ad ea bd
       0.15313023 -0.04094253 -0.16214328 -0.11458875
0001b0 79 d4 49 3e a6 cb 16 3d 7e 60 3d bd 12 0e 0c bc
       0.19709958 0.036815308 -0.0462346 -0.0085482765
0001c0 8f cd 0d 3e 5b d7 ef bc 9f ac 42 3e 80 54 33 bd
       0.13847946 -0.029277494 0.19011162 -0.043781757
0001d0 fc 09 be 3d 5a ec 9e 3c c5 be b4 3c 01 ca 19 3e
       0.09279248 0.01939981 0.022063622 0.15018465
0001e0 2a 81 1e be ac c6 84 bd 6e 7b 45 be 62 70 f4 3d
       -0.1547896 -0.06483206 -0.19285366 0.11935498
0001f0 f7 9c 2a be 87 59 37 bd 01 90 37 3e 68 f4 8e 3d
       -0.1666144 -0.044763114 0.17926027 0.069802105
000200 19 83 c5 3d 6c 5a 60 3e ee d1 1c 3d e7 20 1b be
       0.096441455 0.21909493 0.038286142 -0.1514927
000210 ec f3 fa 3d 86 8f 44 3e 3e a7 e9 bd d9 ee ab bd
       0.12253556 0.19195375 -0.11408852 -0.08395166
000220 b4 67 c9 bc 6e f6 80 be 2b 17 ed 3d c5 57 07 3e
       -0.024585582 -0.2518801 0.115766846 0.13217075
000230 92 5f fc 3d b7 d7 4f be 88 db 77 be 28 14 26 3d
       0.12322916 -0.20297132 -0.24204838 0.040546566
000240 cb e2 fe 3d 7b ae 02 3e 48 c6 59 bd c4 c6 f3 bd
       0.12445601 0.12761872 -0.05316761 -0.11903146
000250 6e bc f5 3d 44 6a 24 3e 18 de 33 3e 68 71 25 bd
       0.11998831 0.16056162 0.17565191 -0.040391356
000260 c9 dc d1 bb 54 23 18 3e 45 60 e5 3d 30 a3 c7 bc
       -0.0064044935 0.14857227 0.112000026 -0.024369806
000270 d7 c4 81 bc 15 d5 c7 bd f5 a8 97 3d d9 69 a8 3d
       -0.01584093 -0.09757439 0.07405273 0.08223314
000280 31 c0 3c be 4b e3 65 be 73 3e e4 bd 3c fe 00 3e
       -0.1843269 -0.22449987 -0.11144724 0.12596983
000290 ab 3c a7 3b 71 d6 b2 bd f5 88 87 3c ce 40 ef 3c
       0.0051036677 -0.08732308 0.016544798 0.029205706
0002a0 2d 61 53 3e c5 75 42 3e 1a 32 83 3e 14 0e a4 bd
       0.20642538 0.18990238 0.25624162 -0.08010498
0002b0 54 c3 1e 3d e9 33 3c bc 4f f8 ba 3d bc 0a 82 bd
       0.0387605 -0.011486986 0.09129392 -0.06349704
0002c0 51 fb 5c 3d 75 a1 1b be 50 89 95 bc 4d 5c 0c be
       0.05395061 -0.1519831 -0.018253952 -0.13707085
0002d0 d5 b8 2c be c7 11 b1 bd 50 53 16 3e d9 3e 16 3e
       -0.16867383 -0.08645969 0.14680219 0.14672412
0002e0 ce 4b 3e 3e f9 57 1c 3e 16 3f ec bd ee ac 24 3e
       0.18583605 0.15267934 -0.1153547 0.16081592
0002f0 0a 76 ac bd 84 22 55 be 53 ac db bc c1 62 2e be
       -0.08420952 -0.20813948 -0.026815569 -0.17029859
000300 e7 e1 fc bd db 66 b7 bd 2a 51 68 3d 07 42 c4 bc
       -0.12347775 -0.08955165 0.05671803 -0.023957266
000310 81 b3 42 3d 98 06 2c be d3 7f 99 3d 2b 31 72 3e
       0.04753447 -0.1679939 0.07495084 0.23651569
000320 ef 37 78 3e aa a5 b3 bd 4f 02 d5 3d dc d2 68 3e
       0.24240087 -0.08771832 0.10400831 0.22736686
000330 57 2b 5f bd 32 3d 8b 3e 0c 5c 58 3e b2 5e fc 3d
       -0.05448469 0.27195126 0.21128863 0.12322749
000340 69 7a 9a bd ec 11 65 3d d5 55 8e bd c9 56 06 be
       -0.07542879 0.055925295 -0.06949965 -0.13119043
000350 80 0b 1a bd 73 26 1b be cc 7e 85 bc 2a 12 11 3e
       -0.037608624 -0.15151386 -0.016295813 0.14167085
000360 f6 cb 18 be d9 4a 03 3e 8f a0 5a 3d 8e f3 8c 3d
       -0.14921555 0.12821521 0.053375777 0.06882392
000370 1c e0 cd 3d c6 f5 1c be fd f2 da bd 41 68 26 bd
       0.10052511 -0.1532813 -0.106908776 -0.040626768
000380 8c bb ca bd e5 f2 cf bc a2 da 53 bd a8 8b 21 be
       -0.09899053 -0.025384376 -0.051722176 -0.15775931
000390 81 e2 5e bd c2 4d e0 3d 3d 38 37 3d 5c 24 57 be
       -0.05441523 0.10952331 0.044731367 -0.21009964
0003a0 0f 34 04 3d 29 4e c4 bd 2e a0 58 be a2 95 60 3d
       0.03227621 -0.0958522 -0.21154854 0.0548302
0003b0 ab dd 8e bd a7 70 59 bd 90 99 b7 bd b2 55 be 3d
       -0.069758736 -0.05308595 -0.089648366 0.09293689
0003c0 1f 50 8e 3d 5b e4 c9 bc f2 9b 33 3e 0e e3 40 be
       0.06948876 -0.024645021 0.17539957 -0.18836614
0003d0 0e b0 07 be 31 81 17 be e5 d0 e9 3c 30 12 09 bc
       -0.13250753 -0.14795376 0.028541991 -0.008366153
0003e0 a7 b4 42 be 95 f7 76 bd 2f 47 a2 bd a4 7f b6 bb
       -0.19014226 -0.060294706 -0.079237334 -0.005569415
0003f0 83 79 59 3e b3 f3 0d 3e bf 22 c5 bd 3a 51 17 bc
       0.2123776 0.13862495 -0.09625768 -0.0092356745

enc1.conv.bias f4 [16]
000000 e8 20 15 3d 30 59 7d 3e c1 66 a5 bd cb 7d 99 bd
       0.036408335 0.24741054 -0.080762394 -0.07494696
000010 ce de 99 bc ef 1d 9e bb 39 c9 5c be 3a c5 03 bd
       -0.018783 -0.0048253457 -0.21561135 -0.03217051
000020 c1 b4 52 3e cf 84 c3 3d 2c 7a 8e 3d a2 04 f7 bc
       0.20576765 0.095468156 0.06956896 -0.030153576
000030 ca ec 8d bd 8a 1d dc 3b 34 16 9e be a3 38 17 3e
       -0.069299296 0.0067173885 -0.30876315 0.14767699

enc2.conv.weight f4 [32, 16, 3, 3]
000000 0c 33 67 3d 72 c3 32 3d c5 8e 18 3d 10 bb f5 3d
       0.056445166 0.043643422 0.03724553 0.1199857
000010 59 fa 55 3e 8d 7d ef 3d 87 7c c7 3d de 83 01 3e
       0.20896281 0.11693869 0.097405486 0.1264796
000020 7b d8 a4 3d 95 12 d7 3d 2f f7 18 3e c5 6d 19 3e
       0.08049103 0.10501591 0.14938043 0.1498328
000030 a6 33 04 3e 49 fc 98 3d d7 77 6d 3e 9a 2d a0 bd
       0.12910327 0.074699946 0.23190247 -0.07821198
000040 60 fc 80 bd 3a 80 1a be f4 8e 13 3e 6b b9 50 bd
       -0.06298137 -0.15087977 0.14410001 -0.05095808
000050 da b4 64 bc bc 15 a3 3e 9e cd 9d 3e e9 6d a1 3e
       -0.013959134 0.3185252 0.30820936 0.31529167
000060 47 f1 d4 3d 88 c3 a0 3d ed 6c 89 3e 1e b4 ef bd
       0.103975825 0.078497946 0.26840916 -0.117042765
000070 c3 ef db bd a6 bb 89 bd 94 46 84 be aa 55 08 bb
       -0.1073909 -0.06725244 -0.25835097 -0.0020803013
000080 7e e5 11 be a7 05 35 bf 67 d5 f1 be 1c f1 b8 be
       -0.142477 -0.7071175 -0.47233126 -0.36121452
000090 37 f2 90 3d 6d 5c 99 bc 80 90 83 bd 28 24 cd 3c
       0.07077449 -0.01872083 -0.064240456 0.025041655
0000a0 9a 02 27 bb 4a aa ed bc c8 eb b4 3a 63 a7 86 bd
       -0.0025483728 -0.029011864 0.0013803178 -0.06574895
0000b0 f4 e9 23 be 42 57 e3 3d a1 f5 2b 3c 96 76 3c 3d
       -0.16007215 0.111006275 0.010495574 0.04601153
0000c0 41 d5 d5 3c 6e e8 79 3c 65 9f b5 3d 54 49 20 be
       0.026102664 0.015253169 0.08868293 -0.15652972
0000d0 50 61 6b be 9a c1 48 be 26 91 d4 bd b6 40 cd bd
       -0.2298634 -0.19605103 -0.10379247 -0.10022108
0000e0 86 ed 04 be 2e fd 98 bc ac 3c c6 b9 e7 ac e1 3c
       -0.12981233 -0.018675413 -0.00037810707 0.027548267
0000f0 10 75 92 bb ff a9 a6 bb 09 b8 25 be ac d4 f9 bd
       -0.0044695213 -0.005086183 -0.16183485 -0.12198767
000100 41 99 10 be b8 a2 bf bd 91 ba 45 be fb ac e6 bd
       -0.14120962 -0.09357208 -0.1930945 -0.11263462
000110 de 9f a2 bd b6 56 88 be 8d 1c 93 be b3 4c 8f be
       -0.079406485 -0.26628655 -0.2873272 -0.27988204
000120 17 00 b4 3d 55 58 13 3e ad 8b 41 3e 05 e5 9c 3e
       0.0878908 0.14389165 0.18900938 0.30643478
000130 84 6a 82 3e e3 c6 ae 3e 0c 1f 34 be 68 d7 c3 bc
       0.2547189 0.34136114 -0.17589968 -0.023906425
000140 76 42 48 bc dd 7b b7 3d fd bd fb ba d6 56 98 bd
       -0.012222877 0.08959172 -0.0019206401 -0.07438438
000150 23 0f 85 3d 25 18 67 3d 30 17 69 bd d3 82 fe bb
       0.06497028 0.05641951 -0.05690688 -0.0077670603
000160 60 0e 5d bd 2e 91 48 be 4b 6c c7 3b 70 14 07 3e
       -0.053968787 -0.19586632 0.0060859076 0.1319139
000170 34 02 61 3e ce 9b 6e be 53 fd aa bb cc ee 92 3d
       0.21973497 -0.23301622 -0.005218187 0.07174453
000180 8e 4a a8 be 4e ce 8f be 07 a9 30 be 2f f6 c6 3c
       -0.3286938 -0.28087085 -0.17251979 0.024287311
000190 3e 7a d7 bd a1 01 23 be e7 c5 68 3c 60 a8 31 bd
       -0.10521363 -0.1591859 0.01420734 -0.043373466
0001a0 38 97 c9 bd 44 dc 3f bd 7e c2 49 be eb 35 04 be
       -0.09843296 -0.04684092 -0.19703099 -0.12911193
0001b0 4f 66 81 3d 9e 16 45 3b e5 54 96 bd 39 59 3d 3d
       0.06318342 0.0030073295 -0.07340411 0.046227667
0001c0 0a 18 e2 3a ff f8 46 bd 93 b7 0c bc d4 3b 0c be
       0.0017249596 -0.048577305 -0.008588689 -0.13694698
0001d0 85 1d f4 bd 67 61 bc 3e 14 fd 3b 3e 53 26 49 3e
       -0.11919693 0.36793062 0.1835826 0.19643526
0001e0 4d 05 ac 3e 8a d5 9d 3e 43 ea a1 3e 81 1c fc 3d
       0.33597794 0.3082698 0.3162404 0.12310124
0001f0 6b da 24 bd 36 23 44 3c 60 34 49 3d 9b 09 4b 3d
       -0.040247362 0.011971286 0.049122214 0.049569707
000200 cf 38 0b 3e 22 49 2e 3e 36 2d 39 3e 73 f2 89 3e
       0.1359589 0.17020085 0.18083653 0.26942787
000210 a2 4f 68 3e a0 ae 67 3e 1a 2b 4f 3e 52 d4 f4 3c
       0.22686628 0.22625208 0.20231286 0.029886398
000220 dc 2a 57 3c bc b9 77 3d 07 41 ff 3d 92 d8 3f 3d
       0.013132777 0.060479864 0.12463575 0.046837397
000230 7c 9e b9 3d 96 05 ab bd b8 0a 4b be 2d 81 19 be
       0.090634316 -0.08350675 -0.19828308 -0.14990683
000240 1d 62 32 bd 39 ae 00 3e 97 31 45 3d a5 4f f8 bc
       -0.0435506 0.1256646 0.048142996 -0.030311415
000250 bb 40 79 bd 02 77 fc bc c4 ca 4c bc 91 aa a0 3d
       -0.060852747 -0.030818466 -0.012499515 0.07845033
000260 25 ef d0 3d 48 51 12 3e e0 c5 9c 3d da d0 0f 3d
       0.10201863 0.14288819 0.07654929 0.035111286
000270 33 4b 02 3d a7 b1 02 3e cc 68 9e 3d 8d 7d 03 bd
       0.031809997 0.12763081 0.07734832 -0.032102156
000280 58 da 4d bd e4 a6 9b bd 8e 7f 39 be 86 1b 12 be
       -0.050257057 -0.07600191 -0.18115065 -0.14268312
000290 e5 37 25 be 50 b0 a4 be 9b a5 3c be 80 fd 63 be
       -0.16134603 -0.32165766 -0.18422548 -0.22264671
0002a0 cc bf 64 be 63 5f 03 be d7 2f 4a be 93 a6 2a be
       -0.2233879 -0.12829356 -0.19744812 -0.16665106
0002b0 f2 01 1b bd 08 2f 10 be 30 ff 6a be e4 3b ca bd
       -0.037843652 -0.14080441 -0.22948909 -0.098747045
0002c0 00 32 b1 bc b5 dd ce be a8 48 5a be 7f b9 9e be
       -0.021630287 -0.40403524 -0.21316779 -0.31000897
0002d0 08 80 f1 3b 2a ac 9f bc ca 4b b7 3d 2e cd 23 3c
       0.007369999 -0.019491274 0.089500025 0.009997649
0002e0 2d 4d a6 bd 45 c5 21 bd d3 38 11 3d 86 4a 86 bd
       -0.08120189 -0.03949477 0.035454582 -0.06557183
0002f0 16 2d f2 3c ac ce 28 3d 8d 37 82 3d 73 51 83 3d
       0.029562514 0.041212723 0.06358252 0.064120196
000300 a5 2a 8e 3c 7f 16 8d bd 08 26 2b 3b 75 39 0e bc
       0.017354319 -0.068890564 0.0026115198 -0.008680691
000310 b0 30 8e bd 0f 1c 4c bd ff 93 e0 3a 53 73 49 bd
       -0.0694288 -0.049831446 0.001713395 -0.049182247
000320 69 86 bd 3d 12 ac 93 bd 46 91 b0 bd 4e 57 89 bd
       0.09254152 -0.07210554 -0.08621459 -0.06706105
000330 7d 67 f6 bc fb 11 d6 3c a1 fa 08 3d 0c 0e 99 bb
       -0.030078644 0.02613162 0.033442143 -0.004670864
000340 13 dd 43 3d 25 43 43 3d f1 ee e9 3d 5c bc be 3d
       0.047818255 0.047671456 0.114225276 0.093132704
000350 89 71 3a bd 9b a7 1f 3c b4 e9 26 3d 03 81 fc 3a
       -0.04551843 0.00974455 0.04075022 0.0019264523
000360 8f 8d 8d bc 90 c4 c3 bc d2 dd 9d 3c ab fa 89 3c
       -0.017279414 -0.02389744 0.019270811 0.01684316
000370 fd 1a be bb 57 56 04 bd 58 f1 2b 3d 60 f9 bc 3c
       -0.005801557 -0.032308903 0.04197821 0.02306813
000380 8c e3 81 bd 31 ba ac bc ac 1c 43 3d 0c 7e 28 3d
       -0.06342229 -0.021084877 0.047634766 0.041135833
000390 b8 42 b5 3d 5e f3 36 3d 09 c7 e0 3d 0d c4 9c 3d
       0.08850616 0.044665687 0.10975463 0.07654581
0003a0 fe 70 a3 3c 0a ff d9 3d b5 8f 84 bd 4a 7a a7 bc
       0.01995134 0.10644348 -0.064727224 -0.020444054
0003b0 d2 9e 80 3a 8e 7a 9a bd 40 f1 21 bd 28 34 c1 bb
       0.0009812957 -0.07542907 -0.039536715 -0.00589611
0003c0 14 07 f1 bd 28 8a ca bd d0 89 8c bd d1 e1 94 bd
       -0.11768928 -0.098896325 -0.06862223 -0.072696336
0003d0 6e 0f 0c bd 73 bc db 3d 50 fd f0 bc 0d ec 26 3d
       -0.034194402 0.10729303 -0.029417664 0.04075246
0003e0 b6 4d 6c 3d 04 46 de 3b 30 f2 41 bd 21 d3 87 3c
       0.0576913 0.006783249 -0.04735011 0.016580166
0003f0 39 70 50 3c a8 17 08 bc d9 c9 ec 3c b1 52 4f 3d
       0.0127220685 -0.008306421 0.028904842 0.05061597

enc2.conv.bias f4 [32]
000000 bd 40 f2 3d 4c f9 58 3e 1f 28 c7 bd 62 14 a6 3d
       0.11828754 0.21188849 -0.09724449 0.081093565
000010 13 3f 11 3e 0c 9e 20 3e 3d 4f f4 3d 7a 5d dd 3d
       0.14184217 0.1568529 0.11929176 0.10808845
000020 51 79 0a 3d b3 e7 9a 3d ad b8 00 3e d8 2f ef 3d
       0.033807103 0.07563724 0.12570448 0.11679047
000030 61 67 f8 3d 57 88 b9 3d 14 82 dd 3d 64 0d ab 3c
       0.12129093 0.09059208 0.10815826 0.020880409
000040 98 eb b5 3d c2 fd 07 3e 08 1a 52 3e 7e 65 0e 3e
       0.088828266 0.13280395 0.20517743 0.13905904
000050 b1 4c 6d bd 77 24 41 3e 2d 86 ad 3d 8b 6f 10 3e
       -0.057934467 0.18861566 0.084728576 0.1410505
000060 0e ea 9f 3d 8f 14 0b 3e 26 55 21 3e 61 18 d6 bd
       0.07808314 0.13582061 0.15755138 -0.10453869
000070 5a af 24 3e 0e c0 ed bc 99 9c 14 3e cc 4f 0a 3d
       0.16082516 -0.029022243 0.14512862 0.033767506

enc3.conv.weight f4 [64, 32, 3, 3]
000000 fd 04 1c 3d 74 61 96 bb 02 ad c2 be 7a d2 90 3e
       0.038090695 -0.004589254 -0.3802262 0.2828558
000010 c2 fc 96 3e 3a 31 70 3e a7 ea 90 bc 99 6e 8e bd
       0.29489714 0.23456278 -0.017690016 -0.069546886
000020 d1 6f 98 be 86 d1 03 be 54 da 9d bc aa 97 37 be
       -0.2977281 -0.12872896 -0.019269146 -0.17928949
000030 9a 1d 60 3d db b9 81 3d 67 da 26 bd 5d 27 09 bd
       0.05471573 0.06334277 -0.04073563 -0.033484805
000040 ba 29 43 bc 6e 62 5e be bf 70 0b 3d 90 df 5e bd
       -0.011911804 -0.21717235 0.03404307 -0.054412425
000050 12 2e 4b bd ea 41 df 3c d6 8b eb 3b 14 43 08 bb
       -0.049604483 0.02725311 0.0071883006 -0.0020791935
000060 cf ef eb bc 75 bf 8c 3c 09 ff 32 bb 6b 9d e8 bd
       -0.028800873 0.017181138 -0.0027312657 -0.1135815
000070 b9 d1 42 be 20 d2 8d be 62 ed c9 bd 03 c7 03 bd
       -0.19025315 -0.27699375 -0.0985973 -0.032172214
000080 31 8c a9 bd 72 6d 94 3a fc 0c b2 bd 6d ee c5 bd
       -0.082786925 0.0011324121 -0.08693883 -0.09664617
000090 0c 11 fd bd 05 4c 12 bd 93 7b 93 be ce 52 50 bd
       -0.12356767 -0.03571703 -0.28805217 -0.05086022
0000a0 21 02 b6 3c f5 89 a3 bb e0 68 28 be 72 c6 41 bd
       0.022217812 -0.004990811 -0.16446257 -0.047308393
0000b0 d4 b9 e5 bd 7a 98 6c bd 09 f5 1d 3e 47 37 b2 bd
       -0.112170845 -0.0577626 0.15425505 -0.087019496
0000c0 d7 01 49 3c f2 c8 1f 3e a5 5f 7b bc 91 d5 1c bc
       0.012268505 0.15603998 -0.015342628 -0.009572403
0000d0 4a 62 84 3d fa 95 88 bd a2 c8 6b be 4d 88 c8 3d
       0.0646406 -0.06669231 -0.23025754 0.09791622
0000e0 22 ab 95 be 98 f2 c6 bd 65 13 0f 3e e7 84 d4 bd
       -0.29232126 -0.0971424 0.13972242 -0.103769116
0000f0 9e f8 21 bd 69 6b 50 3e c3 91 07 be f0 02 a4 bd
       -0.03954374 0.20353474 -0.13239197 -0.08008373
000100 a5 36 5b bb 3c 14 5c bd 64 2d 21 3e 44 e2 48 3e
       -0.0033449319 -0.053730235 0.15739971 0.19617563
000110 2f c0 bd 3d 7b ad 97 bd 99 e3 96 3d 90 5d cc bd
       0.09265172 -0.07406136 0.073676296 -0.09978783
000120 e0 a7 05 be 95 eb 77 bb 71 87 a7 be b6 2f ff bd
       -0.1305232 -0.0037829627 -0.3272052 -0.12460272
000130 de e4 3d 3d 65 e7 ff bd c8 1b b5 bd 0d 6f 09 3e
       0.046360843 -0.12495307 -0.088431895 0.13421269
000140 ab 69 0b be 47 e0 82 be 88 df e0 bd 26 a8 bd be
       -0.13614528 -0.25561735 -0.10980135 -0.3704235
000150 e1 22 1a be 70 9d 8f 3d 89 2f 87 be d9 b5 27 be
       -0.15052368 0.07012451 -0.26403454 -0.16377963
000160 6f 95 4e 3d be a1 21 be 56 11 54 be 08 6f 0a bd
       0.05043548 -0.15784356 -0.20709738 -0.033797294
000170 0b 01 6f be 64 b3 6a 3e 4e a7 ae 3e d7 63 a5 3e
       -0.23340242 0.22919995 0.34112018 0.32302734
000180 cb 1e 13 be a1 5b dc 3d d8 9f 6b be 82 f1 95 3c
       -0.14367215 0.10759664 -0.23010194 0.018303636
000190 5c 85 eb 3d 91 25 81 bc a6 0d bd bc 8f a4 1c 3e
       0.11500046 -0.015764983 -0.023077797 0.15297149
0001a0 4b 6c 14 bc 4d 4c c0 bd 4f a9 f1 3d 08 3f a1 bd
       -0.009059022 -0.09389553 0.11799871 -0.078733504
0001b0 8e c7 1e be 15 b5 bf 3e 0f 81 b6 be a9 2f 04 be
       -0.15505812 0.37442842 -0.3564534 -0.12908806
0001c0 bb 34 b5 3e 80 d1 9d be 73 6a 8c bd af df e1 3e
       0.35391793 -0.30823898 -0.06856241 0.4411597
0001d0 45 68 3b be 07 f6 3e bd 3e 60 cf 3d 8c 35 fd bd
       -0.18301494 -0.04662135 0.101257786 -0.12363729
0001e0 e0 26 b7 bd 82 09 09 3e a8 f6 4f bd f3 04 82 bb
       -0.08942962 0.13382533 -0.05077234 -0.003967875
0001f0 f5 d6 27 3e 75 ad 3d bc 25 a9 86 bd a6 6b ae 3c
       0.16390593 -0.011577 -0.065752305 0.021291565
000200 50 39 4d be b1 11 c6 bd 19 d6 1f 3c 32 4e 19 be
       -0.20041394 -0.09671343 0.009755635 -0.14971235
000210 36 d1 91 bd 3e 7e f2 3d 23 03 32 be 79 79 a5 3c
       -0.07119982 0.11840485 -0.17384009 0.020199524
000220 71 bf f0 3d 79 9c 8a 3d 8c d0 96 bc 3c 7c e9 3d
       0.117552646 0.06768126 -0.01840999 0.11400649
000230 56 01 e9 3c 12 2c 3e bd e3 e1 cd 3d 21 d6 61 bc
       0.02844302 -0.046428747 0.1005285 -0.0137839625
000240 bc 3f f8 bc c7 7b 08 3d e5 58 89 be ca 94 8b bd
       -0.030303828 0.03332117 -0.26825634 -0.06815489
000250 f4 d0 5e bd 50 77 4b be 9e 7c e6 bc 1c c3 b1 3b
       -0.054398492 -0.19869733 -0.028135594 0.00542487
000260 a9 64 74 be 52 74 76 3e 03 fb 42 3e 16 45 a4 be
       -0.23866524 0.2406781 0.19041066 -0.32083958
000270 c6 62 d8 3e 7b 6b d4 3e a0 5c a2 3e de 58 20 3e
       0.42262858 0.4148825 0.31711292 0.156589
000280 4f c8 8a 3d 46 be f2 be 53 52 3c 3b e9 5c ad bd
       0.06776487 -0.47410792 0.0028735592 -0.08464987
000290 86 8a 4c be 4e 1f e9 3d c0 24 83 3d fc 7d 95 bd
       -0.19974717 0.11382924 0.06403494 -0.0729942
0002a0 0e 0d a0 bb f4 1e c2 bc e8 95 4e be d2 2b 1e bc
       -0.0048843687 -0.0236964 -0.20174372 -0.009654002
0002b0 e2 8e 00 bf fc 7d ba be ae ba 70 3e fa 84 84 3d
       -0.5021802 -0.36424243 0.23508713 0.06470676
0002c0 75 c1 5f 3e 48 cc 8b 3c a7 c5 c2 be e4 c4 85 be
       0.21851142 0.017065182 -0.38041422 -0.26126778
0002d0 30 1f ee bc 92 10 a4 bd e8 67 22 be 76 bc 36 3e
       -0.029067606 -0.08010973 -0.1585995 0.1784533
0002e0 88 12 7a 3e fc d1 01 3e 8d 06 ad 3c a4 7b 4e bd
       0.24421132 0.12677759 0.021121288 -0.05041088
0002f0 d5 31 4d bd 20 b9 b8 bd d3 ff 9c bc 9a 2d 52 be
       -0.05009635 -0.09019685 -0.019164955 -0.20525208
000300 07 85 b9 bb 0d 37 32 3d c8 92 b6 bd 1f 4c a7 3b
       -0.00566161 0.04350953 -0.08914715 0.00510551
000310 f3 d9 0a 3d 1a 19 7d be 36 d2 44 bd 88 d9 86 be
       0.03389926 -0.24716607 -0.048052035 -0.26337838
000320 4c 03 b7 be 8b 60 53 bd ad c3 ec bd 04 7e b2 bd
       -0.35744703 -0.051605742 -0.1156076 -0.08715442
000330 4c 9e 42 bc a0 a3 7e bd 40 bc 40 be 63 e1 89 3b
       -0.011878561 -0.062167764 -0.18821812 0.0042077764
000340 3d 10 ab 3d f8 a4 1e be 12 66 ff 3c 10 df 97 3d
       0.083527066 -0.15492618 0.0311766 0.07415593
000350 4e c9 46 bd 9f cb 00 bd 9f b3 c2 3d 07 e6 6b bd
       -0.048531823 -0.03144419 0.09506916 -0.057592418
000360 08 6f 51 bd 2b eb 2e bc 4a 06 e5 bd d3 29 27 bd
       -0.05113128 -0.010676186 -0.1118284 -0.04081137
000370 d2 6b c0 3d 34 94 87 bb 8f 5f 3f 3c 1b 6d 99 3d
       0.09395565 -0.0041375402 0.011680498 0.07491513
000380 49 62 ea bd 9c b7 19 be b4 b9 d2 bc 37 ea 5e be
       -0.11444528 -0.15011448 -0.025723316 -0.21769033
000390 84 b7 88 bd a3 d6 5f 3c d6 29 cd bd b2 1c 63 3c
       -0.06675628 0.013662013 -0.10017745 0.013861822
0003a0 92 d8 0d 3d 81 5a c0 3c c4 0b 45 be d0 c8 98 3e
       0.034630366 0.023480656 -0.1924277 0.29840708
0003b0 70 26 dc be 12 6e 4d be 30 2a 88 3e 46 09 79 be
       -0.42998075 -0.2006152 0.26594687 -0.24319944
0003c0 b8 b7 61 be 13 a4 94 3e 40 9f a2 be 97 dd 0d bd
       -0.2204274 0.2903143 -0.31762123 -0.034635153
0003d0 5c 2c 11 3d 9f c3 ac ba 75 b7 88 bd 29 34 27 3d
       0.035442695 -0.0013180858 -0.06675617 0.04082123
0003e0 ac 7e 1e bd f5 92 fc 3c 15 10 e0 3c 18 0c 00 bd
       -0.038695022 0.030831793 0.027351419 -0.031261533
0003f0 44 cd b9 bd 9c 29 17 bd 0c bb e6 bd ca db a7 3d
       -0.090723544 -0.036904916 -0.11266145 0.08196218

enc3.conv.bias f4 [64]
000000 3b e0 07 3e 2f 65 ab bb c1 df fe bc a8 d5 80 3e
       0.13269131 -0.005230568 -0.031112554 0.25163007
000010 fe 3f 94 3c b7 f1 38 3e f3 ff 1a 3e 43 57 61 3e
       0.01809692 0.18060957 0.151367 0.22005944
000020 77 cc c6 bc 23 08 5f bd 17 03 41 3b a3 4e 37 bc
       -0.024267418 -0.05445112 0.0029451305 -0.011188182
000030 24 a0 08 bd 99 29 f8 bd 3f f1 0f 3e 5a f8 8d bc
       -0.033355847 -0.12117309 0.14056872 -0.017330337
000040 d5 d0 5e 3b 7a c6 2a 3e 92 ae 6b 3e 56 ad c7 3d
       0.0033998985 0.16677275 0.23015812 0.09749858
000050 33 a8 ab bd 6d 43 b9 3c 7d 27 00 3d e4 0c 74 3e
       -0.08381691 0.022615159 0.03128766 0.23833042
000060 bb 30 e7 3d 6b ed 7a 3d d2 5e 4b 3e 6b e1 3e 3e
       0.112885915 0.061261576 0.1986039 0.18640678
000070 37 31 6d bd 83 95 a2 bd 3a 08 74 3e 18 18 35 3e
       -0.057908263 -0.07938673 0.23831263 0.17684972
000080 86 2b 17 3e 15 1f 59 3e 1a ce 0e 3d 57 3d 42 3e
       0.14762697 0.21203263 0.034864523 0.18968712
000090 81 e9 14 3e 5e 68 38 3e 9e 0c 3b 3e 55 16 9e 3d
       0.145422 0.18008563 0.18266532 0.07719103
0000a0 0c d9 5d 3c 1c 3c cc 3d ee ee 8a 3e 69 d7 a2 3d
       0.013540518 0.099724025 0.27135414 0.079512425
0000b0 8a df 02 3e 83 59 3f bc 7c db d3 bd 5c 79 e3 bd
       0.12780586 -0.011679056 -0.10344598 -0.11107132
0000c0 d3 ea f0 3b 94 ea 73 3e 97 12 82 bd cb c5 0e 3e
       0.007352212 0.23819953 -0.06351202 0.1394264
0000d0 02 17 e8 bd e3 c8 ca 3d f7 57 3c 3e 61 e5 4f bd
       -0.113325134 0.09901597 0.18392931 -0.050755862
0000e0 07 a2 74 3e a3 da 89 3e 06 89 32 3e a0 48 81 3e
       0.23889934 0.2692462 0.17435083 0.2525072
0000f0 02 b7 82 3e 38 ce 1f 3e 74 b0 cd bd bd 9d bb 3d
       0.2553025 0.1560601 -0.100434214 0.091609456

dec1.up.weight f4 [64, 32, 2, 2]
000000 55 5f a5 bd 8a 7d 06 be 47 6d 28 3d c2 79 c9 3e
       -0.08074824 -0.13133827 0.04111984 0.39350706
000010 13 66 ea 3e 00 fc fb 3e 8a 52 0d 3f 26 77 e2 3e
       0.45781 0.49215698 0.5520407 0.44231528
000020 0e 7b 39 3e f6 6b fa bd aa 73 65 bc 15 0d 8a 3e
       0.18113348 -0.12227623 -0.014004627 0.26963106
000030 28 0b 79 bd 0d 00 ab 3c 85 83 f9 3b e9 73 48 bd
       -0.060801655 0.020874048 0.0076145553 -0.048938666
000040 bb d0 db 3b 3d 64 24 bf 83 15 44 bf d1 44 5f 3d
       0.006708232 -0.6421545 -0.76595324 0.054508988
000050 d9 8f 3f 3d 8c 74 c9 bd f6 8e 8c 3c be 0e 83 3e
       0.046768043 -0.09836683 0.017158013 0.25597185
000060 77 42 81 3b 40 7f b1 bd 1f 8b 72 3d 55 ad 28 bf
       0.003944691 -0.08666849 0.059214707 -0.65889484
000070 c6 af ae 3d f6 34 f4 bd 2d 6c 70 bd 79 9d c1 bd
       0.0852962 -0.11924164 -0.058696914 -0.09453864
000080 ae ec 09 3f 31 9a fa 3c 72 98 df bd 91 54 64 bd
       0.5387677 0.030591102 -0.109177485 -0.05574471
000090 07 b9 e7 bc 63 37 15 3d 2d 7a 8b 3d ea 19 b5 3d
       -0.02828647 0.036429774 0.068104126 0.08842833
0000a0 ea 75 07 3f d6 a1 0f 3f f5 fd 00 3f 4a 56 f8 3e
       0.529143 0.5610632 0.5038751 0.48503333
0000b0 fe bc 11 3e c8 26 41 3d ba 57 4d bd 38 a6 da bb
       0.14232251 0.047156125 -0.05013249 -0.006672647
0000c0 93 72 15 be 8d ae a5 3e 5c 25 79 3e b0 5f 43 bc
       -0.14594488 0.32359734 0.24330658 -0.011924669
0000d0 81 df 41 bd 45 9b fc 3e 4b 1a fe 3e 81 a0 6e 3e
       -0.04733229 0.4933721 0.49629435 0.23303415
0000e0 d4 63 3d 3e 1e 46 06 bd d0 50 b2 3e 4b c9 01 3f
       0.18495113 -0.032781713 0.3482728 0.50697774
0000f0 2f b5 f1 3e d8 e6 11 3f 34 42 8b 3e 99 1e fc 3e
       0.47208545 0.56992865 0.27198946 0.49242094
000100 04 b0 65 3e 79 dd c1 3e 08 bf 7d bd e4 44 f0 3e
       0.22430426 0.37864283 -0.06194976 0.4692756
000110 45 5a f9 3e 39 57 b4 3e e0 bc d5 3e bf dc b6 3d
       0.48701683 0.35222796 0.41745663 0.08928823
000120 a7 7e fc 3e 43 2b a7 3e 62 2e c0 3e 5f 6f 03 3f
       0.49315378 0.32650194 0.37535387 0.51341814
000130 46 ce df 3e 3c 6b ff 3e 7e fe f4 3e cb 8a ef 3e
       0.43712062 0.498865 0.47850412 0.46785578
000140 ce f1 75 3d 3c e4 89 bd d8 24 c9 3c a3 f2 46 bf
       0.060045056 -0.067329854 0.024553701 -0.77713984
000150 15 fa 21 3e 3f 16 fb bd f4 98 1d be f0 d6 02 3f
       0.15818055 -0.122601025 -0.15390378 0.5110922
000160 de 60 d7 3e e6 0d 0b 3f 9a d7 11 3f e9 3e c0 3e
       0.4206609 0.5431808 0.56969607 0.37547997
000170 98 b5 85 bd a9 c1 b8 be 69 2e 2f bf c6 c0 1b bf
       -0.06528777 -0.3608525 -0.6843019 -0.60841024
000180 11 ac 49 3e af dd 56 3d f3 9f ea bd 48 f5 76 bd
       0.19694544 0.052457508 -0.11456289 -0.060292512
000190 61 83 13 3f b8 79 d6 3e 77 61 df 3e 71 c1 15 bd
       0.57622343 0.4188974 0.43629047 -0.036561433
0001a0 ef 9d 16 3f c8 8b 02 3f 73 44 15 3f 9d da f3 3e
       0.5883474 0.5099454 0.5830757 0.47627726
0001b0 de e4 17 3e 8a aa 83 3e c6 09 6c 3c 66 22 01 3e
       0.148334 0.25716048 0.014406627 0.12610778
0001c0 ea e0 02 3f 2a f9 f4 3e 9a ad dd 3e e2 75 09 3f
       0.5112444 0.47846347 0.4329651 0.536955
0001d0 8e 76 2d 3d b5 11 c2 3c 66 a9 e0 bc fd 31 86 bd
       0.04234939 0.023690084 -0.027424525 -0.06552503
0001e0 9e 92 fa 3e ac db a9 3d 6f 66 1c 3e 6c 75 95 3e
       0.48939985 0.08293852 0.1527345 0.29191148
0001f0 ce bc 31 3d d8 29 e8 3e 77 53 df 3e 7d 20 b4 3e
       0.04339295 0.45344424 0.43618366 0.35181037
000200 4e f2 62 3d da dc ea bc d0 fd a3 3c b5 5b 4f 3e
       0.05540686 -0.028669763 0.020018488 0.20249827
000210 f5 94 7f 3e a5 3e 91 3e 71 cc a7 3e e6 82 a3 3e
       0.24959166 0.28368106 0.32773164 0.31935805
000220 99 bb 23 3d 0c 01 9b bd 03 59 3d 3e 07 4d c6 3c
       0.03997383 -0.07568559 0.18490987 0.024206651
000230 01 44 3a bd 4e 9e 82 3a 5d cb 99 bd 00 99 91 39
       -0.04547501 0.0009965391 -0.075094916 0.0002777055
000240 0d 74 a6 3c 73 a5 07 bf 30 a4 02 bf e0 8e 23 bd
       0.02031901 -0.5298683 -0.5103178 -0.039931178
000250 e0 13 aa bc bb 7b 09 3d d4 77 e1 bb 81 36 80 bc
       -0.02076143 0.033565264 -0.0068807397 -0.01565099
000260 10 61 4e 3d c7 78 b0 bd d1 21 f8 3b de 56 9b be
       0.050385535 -0.086167865 0.0075723906 -0.30339712
000270 b5 92 98 bd 03 42 99 bd aa b1 86 bb 1f 67 fd bc
       -0.07449857 -0.07483294 -0.0041105347 -0.030932961
000280 0c 65 9b 3e 4c f8 28 3c 66 0b d3 bd 93 00 1f bd
       0.3035053 0.010313105 -0.103049085 -0.038818907
000290 0d 83 61 3d 55 0c f0 3c 72 5a ad 3d 85 28 2d bd
       0.05505662 0.029302755 0.08464517 -0.04227497
0002a0 4c bf 98 3e fc 80 83 3e 58 fc 81 3e 90 d7 5e 3e
       0.29833448 0.25684345 0.25387836 0.21761918
0002b0 8a 1e 67 bb 8a 60 71 3d 3b 6a c2 bd d3 eb 74 ba
       -0.0035266005 0.058929957 -0.09492918 -0.0009343002
0002c0 5f bb e5 bc 47 98 a3 bc be d0 9b 3d 86 fa e9 3c
       -0.028043447 -0.019970072 0.07608174 0.028561842
0002d0 59 92 ef 3d c0 a3 c0 3e c4 1e 8c 3e a4 00 10 3e
       0.116978355 0.3762493 0.27367222 0.14062744
0002e0 9a c9 06 bc 40 be 1a 3b 15 c7 58 3e bf 53 18 3e
       -0.0082267765 0.0023611933 0.21169694 0.14875697
0002f0 6b 86 8e 3e 08 e4 95 3e 11 89 de 3d d0 37 46 3e
       0.27836928 0.29275537 0.10865987 0.19357228
000300 8d 67 09 bd 7c 3a a2 3d 62 4e 7e bd c1 cb 69 3e
       -0.03354602 0.07921311 -0.06208647 0.22831632
000310 ca 05 b0 3e 89 f9 6d 3e 1d 8c 81 3e ad 48 fc bd
       0.34379417 0.23239721 0.2530221 -0.12318549
000320 87 99 b5 3e 15 e0 3e 3d 72 3b 01 3e f5 46 2b 3e
       0.35468695 0.04660042 0.12620333 0.16726287
000330 09 11 9b 3e b6 c5 a8 3e 66 ef dc 3e 3b 7f 29 3e
       0.30286434 0.3296334 0.43151397 0.16552441
000340 c2 10 0a 3c ea e7 63 bd 7a fd 82 bb dc 44 90 be
       0.008426847 -0.055641092 -0.003997502 -0.28177536
000350 d0 e1 6d bc fd c6 a9 bd 18 b9 9f 3c ee 82 e9 3d
       -0.01451917 -0.08289907 0.01949744 0.11401926
000360 b3 ea 63 3e 64 19 15 3e ed 6f b3 3e 84 0b b5 3c
       0.222575 0.14560467 0.3504633 0.022100218
000370 fd 15 3d bc 74 03 17 bf 59 78 10 bf 14 b2 b6 be
       -0.011540887 -0.58989644 -0.56433636 -0.35682738
000380 10 5c 52 3e 20 d3 01 3d 0d 0b 2b 3d bc c0 97 3d
       0.20542932 0.031695485 0.041758586 0.07409808
000390 a1 d0 b9 3e 30 8c 88 3e a3 d5 82 3e 1f 8f 5c 3d
       0.36291984 0.26669455 0.25553617 0.05384743
0003a0 27 69 a3 3e e0 0e 6d 3e 1f 68 69 3e 85 5e 56 3e
       0.31916162 0.23150206 0.22793625 0.20934494
0003b0 5e 8e 8f 3d 27 fb 95 bd b4 9e 6d 3d 09 f7 76 3e
       0.07009576 -0.07323294 0.05801268 0.24117674
0003c0 71 aa b3 3e d7 f3 2d 3e d6 43 a3 3e 7f 47 06 3e
       0.35090974 0.16987549 0.31887692 0.13113211
0003d0 5b 29 35 bd 6e 7a cd bd 72 46 25 bc eb 67 3b bb
       -0.044228893 -0.10033117 -0.010087596 -0.0028595875
0003e0 8f f3 a2 3e 0b b0 01 be a9 7a 38 3d ce e6 46 3e
       0.31826445 -0.12664811 0.045038853 0.19423983
0003f0 5d 0a 61 3b 10 9f 35 3e 74 e5 3b 3e d9 b4 3c 3e
       0.0034338452 0.17736459 0.18349248 0.18428363

dec1.up.bias f4 [32]
000000 f4 56 6e 3e 48 3e 82 3e 76 c1 8c 3e 24 cd c7 bc
       0.23275357 0.25438142 0.2749135 -0.02438981
000010 9f e9 18 be c4 f9 fc bb 99 24 d6 bd 53 cf bc 3d
       -0.1493287 -0.007720204 -0.10456199 0.092192315
000020 a1 d2 60 3e 11 10 ef bc eb b3 92 3e 28 2d a8 3d
       0.21955349 -0.029182466 0.28652892 0.08211738
000030 86 3e 8e 3e f7 0f 3f 3e b9 fb 4c 3e 47 07 86 3e
       0.27782077 0.18658434 0.200179 0.26177427
000040 d0 d5 8e 3e 5f 1d 32 3e 24 dc a4 3e d1 75 8a 3e
       0.278975 0.17394017 0.32199204 0.27043012
000050 6e ef 5c be 72 c5 44 3e bb 07 7e 3e 64 1f a0 bd
       -0.2157571 0.19215944 0.24807636 -0.07818487
000060 95 69 21 3e 87 14 6e 3e 2b 6e 51 3e f6 ca 38 3e
       0.15762933 0.23250018 0.20452182 0.18046173
000070 4c fb 7d 3e d1 87 01 be 3c 13 96 3e fa d6 7e 3e
       0.24802893 -0.12649466 0.2931155 0.24886695

dec2.up.weight f4 [32, 16, 2, 2]
000000 24 82 a7 3c c8 bd b8 3c 38 76 ca 3d ae ec 0e 3e
       0.020447798 0.022551432 0.0988583 0.13957474
000010 0d 95 bf bc eb 9e bf 3d bc 06 14 3e 22 66 42 3e
       -0.023386503 0.09356483 0.14455694 0.18984273
000020 d9 72 dc ba f1 2b d6 bd d3 20 1a bd 55 51 0a 3d
       -0.0016818895 -0.104576 -0.03762896 0.03376897
000030 c1 49 c0 bd f2 5f fa bd 43 bf a4 3d eb e9 8d bc
       -0.093890674 -0.12225331 0.08044293 -0.017323455
000040 82 43 9b 3d 4b 5a 07 3d 99 41 c4 3d 35 1d 8d 3d
       0.075812355 0.033045094 0.09582824 0.068903364
000050 04 fa 90 bd 2a d5 3a bd a1 41 24 be 0f f9 e8 3d
       -0.07078937 -0.045613445 -0.1604066 0.11375629
000060 1a 87 1d 3e c3 16 aa 3b ee b3 31 3d 57 10 ae 3d
       0.15383568 0.0051907017 0.043384485 0.0849921
000070 0f 5a e0 3d b9 18 6e 3e 4c a2 0a 3e 52 21 2a 3e
       0.10954677 0.23251618 0.13538474 0.16614273
000080 84 b8 50 3b f6 ac 92 3d 5c ea 40 3e 55 8c 10 bc
       0.003184826 0.07161896 0.18839401 -0.00882252
000090 92 36 17 3e 9b b7 c7 3d 0d 90 9a 3c c4 d3 c4 bd
       0.1476691 0.09751817 0.018867517 -0.096107036
0000a0 c0 4b 62 3d 35 da 8d bd ac 71 bb 3c 2d 0f 25 bd
       0.055248022 -0.06926385 0.022881351 -0.040297676
0000b0 e3 5b 2c 3d 93 ac bf 3d b7 28 a8 3d f8 2e 28 3d
       0.042079818 0.09359088 0.08210891 0.041060418
0000c0 88 27 13 3e 08 b1 d3 3c 86 36 05 be 68 f0 55 bc
       0.14370549 0.025841251 -0.1300908 -0.013057806
0000d0 d5 3c 3b 3d 4b 26 32 3e 06 4b 90 bc 65 c5 1c bd
       0.04571231 0.1739742 -0.017613899 -0.038274188
0000e0 e6 76 95 bd 43 85 5f 3d 6b 7c 80 bd 75 75 14 3e
       -0.07298069 0.054570448 -0.06273731 0.14497931
0000f0 f9 af 13 3e 24 ff fc bd 28 3b 4e bc 4e bb 37 3e
       0.14422597 -0.12353352 -0.012587346 0.17942545
000100 c0 98 b1 3d 21 97 75 bc cf 96 a9 3d 95 fb 3a 3e
       0.08671713 -0.014989645 0.082807176 0.18260033
000110 07 05 c1 3d 03 32 06 3e d9 80 33 3c ad 1e 20 3e
       0.09424787 0.13105015 0.010956013 0.15636702
000120 39 f4 97 3d 15 a7 93 be 97 a2 15 bd 9f ce 2a 3d
       0.07419629 -0.2883841 -0.03653201 0.041700955
000130 3c 2e 0d be f9 b4 58 be bb d1 ff bd 6a 93 82 be
       -0.13787168 -0.21162786 -0.12491175 -0.25503093
000140 47 e2 ee 3d 19 08 14 3e 91 a6 2c 3d 86 50 cc bc
       0.11664253 0.14456214 0.042151038 -0.02494074
000150 7b 53 13 3d da f6 0c be c2 fb 58 3d ce f4 24 3e
       0.035968285 -0.13766041 0.05297447 0.1610901
000160 03 70 38 3e c8 c7 a1 bd 54 78 00 3e ac cb 4e 3e
       0.18011479 -0.078994334 0.12545902 0.20194882
000170 72 42 e7 3d 14 6f 26 3e 0a d1 45 3e 8c 0d 1d 3d
       0.1129197 0.1625331 0.19318023 0.038342997
000180 ea 0d 8c 3d b4 be 48 3e 4e e3 8a 3d 7e 40 21 3e
       0.068385914 0.19603997 0.06781636 0.15747258
000190 e8 d1 13 3e e2 95 9a bd 78 6c fe bd 59 f6 1f be
       0.14435542 -0.07548119 -0.124230325 -0.15621318
0001a0 90 0a 84 3c 68 31 b8 bd 3f 25 ad 3b dc 4d 79 3d
       0.016118318 -0.089937985 0.005283981 0.060865268
0001b0 91 fc 69 3d 2e 47 1a 3e eb 90 b5 3d e1 bb 1a 3e
       0.05712563 0.15066215 0.088655315 0.15110733
0001c0 61 57 71 3d f9 43 b3 bd 2d 20 5c bd e0 e3 3c bd
       0.05892122 -0.08753199 -0.053741623 -0.046115756
0001d0 31 12 19 3e 0c 04 55 3e 54 90 f1 3d 3c 8c 44 bc
       0.14948346 0.20802325 0.117951065 -0.011996325
0001e0 fa 59 0c be af d3 9a 3d c2 6e 0b bd 1c 96 25 bd
       -0.13706198 0.07559907 -0.034041174 -0.04042636
0001f0 fa 62 96 3d 36 53 e0 bd e3 64 33 3e 7b e8 43 3e
       0.07343097 -0.10953371 0.17518954 0.19131653
000200 11 37 4a 3e 41 d7 b0 bd 50 db 27 3e bf 0a 1d 3e
       0.19747569 -0.086348064 0.16392255 0.1533613
000210 df 00 2c 3e 4c c0 8d 3e fa 54 c1 3d 6c b4 1c 3e
       0.16797207 0.27685773 0.09440036 0.153032
000220 05 3b e9 bd 49 66 b4 3d da 8d d1 3c 06 96 80 3d
       -0.1138821 0.08808572 0.025580335 0.06278615
000230 c9 43 56 3d 4b 24 fd bc 17 b7 0a 3e 44 b4 32 3d
       0.05231074 -0.030901095 0.13546406 0.043628946
000240 b5 1f 7e 3e d6 5d f4 3d d9 ae 0f 3e 7a c3 49 3e
       0.24816783 0.1193196 0.14031543 0.19703475
000250 00 21 5f bd 14 02 95 bd 15 7b 5c 3e d5 f9 cd 3d
       -0.05447483 -0.07275787 0.21531327 0.10057417
000260 e6 98 7e 3e 1d 95 e9 bd 0b 3e 0d 3e 4e 04 f8 3d
       0.24863014 -0.11405394 0.13793199 0.12110196
000270 b8 3a cd 3d 05 b4 79 3e 46 51 d5 3d 0d 80 16 3e
       0.10020965 0.24385078 0.10415892 0.14697285
000280 b4 f9 ce 3d 00 3f 6e 3e 0a 51 e5 3d 82 bc 75 3e
       0.10106221 0.2326622 0.111970976 0.23997691
000290 f4 5b 5a 3e 40 1c ee 3c 4a 1f 0e be 15 8c 18 be
       0.2132414 0.029066205 -0.13879123 -0.14897187
0002a0 e0 a6 3b 3d 01 78 50 bd 1e 58 07 be d6 f0 8c 3d
       0.04581344 -0.050895695 -0.13217208 0.06881873
0002b0 87 44 1b 3c 8f 5a 73 3e 09 f5 91 3e c0 92 76 3e
       0.009476787 0.23765014 0.2850726 0.24079418
0002c0 fc 68 88 3e b3 1d 4e bd bc 12 89 3d 0b 67 c1 3d
       0.26642597 -0.050321292 0.066930264 0.09443482
0002d0 3c 6a 3d 3d 0b 7e 6d 3e c7 b5 40 3d 6e bd 81 bd
       0.04624389 0.23192613 0.047048356 -0.06334959
0002e0 02 bd 05 be 3a 1a 6e 3e 56 be 7a bd ff 1a 34 3e
       -0.13060382 0.23252192 -0.061216675 0.17588423
0002f0 16 dc 84 3e 99 d8 d6 bd b6 11 c1 3d ba 0d ea 3d
       0.25949162 -0.104905315 0.09427206 0.114283994
000300 4b db 4e 3b 22 cc a1 3d 81 2b c3 3d 39 3b bf bc
       0.0031563814 0.07900263 0.09529782 -0.02334367
000310 ee 39 ca 3d 62 a8 07 bd 1c 30 15 bc 58 3a 89 bd
       0.098743305 -0.033119567 -0.009105708 -0.06700581
000320 d3 55 e3 3d 53 5c 42 3c a2 50 83 3d a6 40 22 bd
       0.11100354 0.011862832 0.06411864 -0.039612435
000330 84 36 d5 bd 62 b9 d7 bd bf a7 d0 bd b2 d1 6e 3c
       -0.10410789 -0.10533406 -0.10188245 0.014576362
000340 df cd 6c bd 0d ab 04 3e 68 66 cc bd 44 56 b0 bd
       -0.05781352 0.12955876 -0.0998047 -0.08610204
000350 40 22 ad bb f0 5e f0 3d 7e f4 89 bc b0 75 44 bd
       -0.005283624 0.11736858 -0.016840216 -0.047963798
000360 16 38 ea bd 08 4a a7 3d 75 28 7f 3d b5 0f 98 bd
       -0.11436479 0.08168417 0.062294442 -0.07424871
000370 3b 2c 0a 3d 6c 18 6e 3c 77 b4 95 3d bd f9 af bb
       0.033733588 0.01453219 0.073098116 -0.0053703473
000380 44 c4 c7 3d d8 bf ad bd c7 84 39 bd 65 6f 96 bd
       0.097542316 -0.08483857 -0.045292642 -0.073454656
000390 bd 85 5d 3d 5d fa f5 bd 8d 2b e1 bd 9d 11 27 bd
       0.05408262 -0.12010644 -0.10994635 -0.04078828
0003a0 5b 42 bf bd 12 ef b1 3b 9b bb aa 3d 8a 5b 40 bc
       -0.09338828 0.0054301107 0.08336564 -0.011740575
0003b0 d4 df dc bd 4a fb 08 3e 69 71 ac bc f9 7c b0 3c
       -0.10784879 0.13377109 -0.021050172 0.021543967
0003c0 80 03 ea 3d 57 81 1c 3d 8f c8 74 ba 63 33 a3 bd
       0.11426449 0.038209286 -0.0009337747 -0.079687856
0003d0 6b 8a 84 3d 56 2d 8f bd e6 88 c8 bd 00 94 a8 bb
       0.06471714 -0.06991069 -0.09791736 -0.005144596
0003e0 e8 b3 d1 bd 97 fe 80 bd 8a bd 80 3d 8f ed a6 3d
       -0.102393925 -0.06298559 0.06286152 0.081507795
0003f0 e7 13 c2 3d f8 7c dd 3c 7f 51 a8 3d eb d1 87 bc
       0.09476452 0.027037129 0.08218669 -0.016579589

dec2.up.bias f4 [16]
000000 03 6a 07 bb ed a8 11 3c 7a 4c bd bc c9 1c f2 3e
       -0.0020662553 0.008890373 -0.023107756 0.47287586
000010 1c d6 2c 3e 14 cc 28 bb 3a c1 d2 ba 14 a1 49 3d
       0.16878551 -0.0025756406 -0.0016079315 0.04922588
000020 01 9d 05 3e a0 67 1b bb 64 59 f5 ba de 80 94 ba
       0.13048173 -0.0023712888 -0.0018718657 -0.0011329909
000030 c6 fc a9 bb d5 df f3 ba bd 4f cf ba 5a 7d d0 ba
       -0.0051876036 -0.0018606136 -0.001581661 -0.0015906498

dec3.up.weight f4 [16, 8, 2, 2]
000000 e4 3f 61 bd d5 38 e6 3d 92 a8 28 3e 12 69 59 3e
       -0.05499257 0.112413086 0.16470554 0.21231487
000010 4f 1b 88 be e6 81 96 3d 3c 3a 3c bd 0e db cc 3d
       -0.26583335 0.07348995 -0.045953974 0.10002719
000020 24 bd 74 3e 15 b6 d4 3d d8 af a1 bd cb ba 19 3e
       0.23900276 0.10386292 -0.07894868 0.15012662
000030 02 1b 47 be 31 a4 3a be 79 fb 92 bd 7f 2b 20 be
       -0.19443896 -0.18226697 -0.07176871 -0.15641592
000040 a1 1b 0c 3b d9 4d 1a 3e eb 2c 0e 3c 35 81 1e 3e
       0.0021378773 0.15068759 0.0086777015 0.15478976
000050 6e 1c 33 be 86 6e 96 3d 75 12 48 bd 09 7e fb 3d
       -0.17491314 0.073452994 -0.048845727 0.12279899
000060 db 2e 72 3e c1 6c 99 3d af ed 10 3c 96 d7 02 3e
       0.23650686 0.07491446 0.008845731 0.12777552
000070 0a cf 6b 3e e4 42 7c 3d 67 3b 77 3e 56 94 82 3d
       0.23028198 0.06158723 0.24143754 0.06375949
000080 0a 20 d6 3c 37 74 30 3e 32 75 26 3e 6f 46 34 3e
       0.026138324 0.17231832 0.16255644 0.17604993
000090 28 1a 14 bd 1c 00 23 be 70 39 e5 3d 44 0b 37 be
       -0.036157757 -0.1591801 0.11192596 -0.17875391
0000a0 89 97 0f 3e cc 2a 75 3d 60 fa 09 3e 93 e9 00 3e
       0.1402265 0.059855267 0.13474417 0.12589101
0000b0 2e 28 68 be 2e aa 0e be 73 bf 16 be 07 12 6b 3d
       -0.22671577 -0.13932106 -0.1472147 0.05739024
0000c0 5a 9e 21 3e 0b c4 5e 3e 8a e6 24 bd 8e 19 3f 3e
       0.15783063 0.21754472 -0.04025892 0.18662092
0000d0 11 de e0 3d 33 e1 32 be 48 9f a0 bd e5 63 30 be
       0.10979856 -0.17468719 -0.078428805 -0.17225607
0000e0 46 f2 6a 3c c9 ba 68 3e 73 54 c9 bd 62 a8 22 3e
       0.014339989 0.22727503 -0.098305605 0.15884545
0000f0 26 c8 2d 3e 16 b2 4a 3e 1c 3e 30 b9 fa 80 bd 39
       0.16970882 0.19794497 -0.00016807806 0.00036144984
000100 1c c6 ae 3d 57 96 9e 3c 80 37 9c bd cf bb a4 3d
       0.0853388 0.019358797 -0.07627773 0.08043634
000110 d4 dd 15 3b d7 b0 69 bd 3a fa 8f 3d b6 06 cd 3d
       0.0022867816 -0.057053413 0.07030149 0.10011046
000120 de 5b ab 3d cf cb f7 3d 79 17 90 bc 3c 18 13 3d
       0.08367132 0.1209942 -0.017589318 0.035911784
000130 b0 33 3d 3e 49 21 1e 3e 10 f8 e2 3d 2f 63 97 3e
       0.18476748 0.15442385 0.110824704 0.2956786
000140 81 2a c2 3d b1 75 14 bc 9d ea a6 bd 6c 00 6c 3d
       0.09480763 -0.009061263 -0.08150218 0.05761759
000150 fe ef 4e be 00 77 ca bc 2e 5e de 3d f1 4b 61 bd
       -0.20208737 -0.024714947 0.10857807 -0.055004064
000160 0d c7 e0 bd b4 a9 bc 3d 66 65 1c bc ec 07 ae bb
       -0.10975466 0.09212056 -0.00954566 -0.005311003
000170 85 63 40 3e 33 e6 f9 3d 02 16 2d bd 29 ba fa bd
       0.18787964 0.1220211 -0.042257316 -0.122425385
000180 37 61 87 be 10 e2 45 be ce 2c 05 be be a8 e4 be
       -0.26441357 -0.19324517 -0.13005373 -0.4465999
000190 f2 a2 df bd a9 7e 07 be 81 88 a4 be ab 54 88 be
       -0.10919751 -0.13231911 -0.32135394 -0.26627097
0001a0 99 e4 68 be 82 27 0d be 10 9e c9 be 2c 2f 38 be
       -0.22743453 -0.13784602 -0.39378405 -0.17986745
0001b0 ea 7c fc 3e f5 c6 04 3f 8a 3e 01 3f db 19 f5 3e
       0.49314052 0.51866084 0.5048605 0.4787129
0001c0 a1 f4 9d be 94 c2 e5 bd e1 93 04 be 2f b4 85 be
       -0.308507 -0.112187535 -0.12947036 -0.26114032
0001d0 2d d4 24 bd 28 f7 e0 bc c9 1e d2 bd d1 48 02 be
       -0.04024141 -0.027461603 -0.10259778 -0.1272309
0001e0 4b 91 5f be 9a dc c1 be 2d de e7 bd af 6a ee be
       -0.21832769 -0.37863618 -0.113216735 -0.46565768
0001f0 a6 2a 0d bf e4 26 d4 be 34 fa fa be 83 b8 07 bf
       -0.551432 -0.4143592 -0.49019015 -0.5301592
000200 62 da 26 bc 0c 83 60 3e 79 74 ad bb 16 f0 eb 3d
       -0.010183902 0.2192499 -0.0052934256 0.11520402
000210 fa d3 be 3c e4 57 0d 3e 01 c6 8a 3e a5 07 d2 bd
       0.023294438 0.13803059 0.2710419 -0.10255364
000220 22 a7 a2 3b 9e 05 b4 3d cf c0 72 3e bf 4d 2c 3d
       0.0049637714 0.08790134 0.23706363 0.042066332
000230 81 55 31 3e 4f a4 7b 3a 41 92 be 3d 9c 72 3f 3d
       0.17317773 0.0009599374 0.093052395 0.04674016
000240 6f 4c 57 3e 2f 83 ca 3d 14 19 2e ba 57 fe 68 3e
       0.21025251 0.098883025 -0.000664131 0.22753273
000250 4b ff 12 be 2e 50 db bd 54 df 27 be 65 3c 1d 3d
       -0.14355199 -0.107086524 -0.16393787 0.038387675
000260 41 ce 48 3e cc dd 86 3d 8a 46 48 be da 8e e5 3d
       0.1960993 0.06585273 -0.19558159 0.112088874
000270 25 c6 27 3e da f0 1e 3e b6 58 41 3e 10 02 0e 3e
       0.1638418 0.15521565 0.18881497 0.13867974
000280 e3 0b 11 be f3 61 b2 3a 32 5f 5e bd 59 67 a9 3d
       -0.1416469 0.0013609513 -0.054290004 0.08271665
000290 ef 55 9b bd a4 f4 67 bd 24 50 1d bc 9d 05 43 3c
       -0.0758475 -0.05662979 -0.009601627 0.011903194
0002a0 db b9 81 3e c6 b5 c4 bd 24 da ff 3d 16 1d bb bd
       0.2533711 -0.09604983 0.12492779 -0.09136407
0002b0 78 22 34 be 35 14 81 bc 05 7d 08 be 93 d7 0b be
       -0.17591274 -0.015756706 -0.13328941 -0.13656454
0002c0 5e 8d 71 3d 15 41 a6 3d 9c b6 a5 3d e1 5b 3c bc
       0.05897271 0.08117882 0.080914706 -0.011496515
0002d0 0f 19 01 be b6 5a c5 bd b6 81 b7 bd f9 74 8e 3d
       -0.12607215 -0.09636442 -0.08960287 0.069559045
0002e0 56 11 53 3e 15 58 2b bd 03 dd db 3d 26 d4 dc 3d
       0.20612082 -0.04183205 0.10735514 0.107826516
0002f0 c7 91 03 3d a7 59 86 3d 5f e6 e6 bd 30 3f 1a 3e
       0.032121446 0.065600686 -0.112744085 0.15063167
000300 19 64 23 3d 12 c4 8f 3d 70 3b 4c bd 77 5f b4 3c
       0.039890382 0.07019819 -0.04986137 0.022018177
000310 4b 51 c9 bd ff 43 3a bd bd 08 bc 3d 94 84 39 3b
       -0.098299585 -0.045475002 0.09181354 0.0028307782
000320 f8 0c c8 3d 17 5d 07 3e 69 75 d6 3d 8b 19 3c 3e
       0.097680986 0.13219105 0.10471613 0.18369119
000330 d8 6c de bb 2c e3 a3 bc b7 de 3a be 47 02 ff bd
       -0.0067878775 -0.020005785 -0.18249021 -0.12451606
000340 9a 8f 88 3e b2 f9 0e 3e 9a 87 81 3e a4 ac 9c 3d
       0.2667206 0.13962439 0.25298768 0.07650116
000350 31 2d 21 bd 3a 0c 72 bd c4 93 2b bd ec eb 98 3d
       -0.03934974 -0.05909369 -0.041888967 0.074668735
000360 e3 65 26 3c 34 8d 8d bb 1b ef 45 be 0b ff e6 3b
       0.010156128 -0.0043198112 -0.19329493 0.0070494465
000370 b2 ef bb bc 7b ce 08 bc da bb b6 bd 01 dc 65 3e
       -0.022941444 -0.00835001 -0.089225486 0.22447206
000380 31 00 05 be 15 81 2e 3e 35 78 94 bb 65 e0 97 3d
       -0.12988354 0.17041428 -0.0045309314 0.07415847
000390 d3 25 90 3d 18 94 11 3e a6 2f 18 3e f3 70 02 be
       0.070384644 0.1421665 0.14861926 -0.12738399
0003a0 db ee cc 3d 02 0a c6 3d 00 b3 1c 3e c0 aa e9 bb
       0.100064956 0.096698776 0.15302658 -0.0071309507
0003b0 d1 df fe bd a0 bf 96 bb 25 9c 6d bd 1c 51 9d bd
       -0.12445033 -0.00460048 -0.05801024 -0.07681486
0003c0 9f 06 ba bd 9c 52 7c 3e 07 7b 41 3e 78 31 32 3d
       -0.09083294 0.24640888 0.18894587 0.04350421
0003d0 6c 55 07 be 8c 59 b5 bd 98 20 13 bd 9a 49 cc 3b
       -0.1321618 -0.0885497 -0.035919756 0.00623436
0003e0 a5 1c f5 3d 59 2c ad bd 22 d5 8b 3c 22 56 0d 3b
       0.11968354 -0.08455724 0.017069403 0.0021566232
0003f0 4d 2c 14 3e 5a 15 91 bd 9f 00 1c 3e 9d 0a 4b 3d
       0.14470024 -0.070841506 0.15234612 0.04957067

dec3.up.bias f4 [8]
000000 dd 7b 10 3e 8c 9f 21 3c 54 49 16 3e f1 3c a8 3e
       0.1410975 0.009864699 0.1467641 0.32858995
000010 aa 95 e2 3d fe 86 eb bd dd 7f 05 3e bd 01 3b 3e
       0.110637024 -0.11500357 0.13037057 0.18262382

final_conv.weight f4 [1, 8, 1, 1]
000000 4c be 1c be e3 55 c5 be 0c fc 87 be 84 e7 3a 3f
       -0.15306967 -0.3854209 -0.26559484 0.73009515
000010 44 28 9d be d5 a9 ac 3d f9 55 4d be 07 2f a7 be
       -0.30694783 0.084308304 -0.20052327 -0.32653067
