best_sod_model.pth (torch, 143173 bytes, 13 tensors)

enc1.conv.weight f4 [16, 3, 3, 3]
-0.09099124 -0.0027536906 -0.072773874 -0.026080325 -0.1286177 -0.016966635 0.034350228 -0.0018615209
-0.06259089 -0.12891075 -0.206367 -0.085728675 -0.07165359 -0.2504103 -0.053355098 -0.010412796
-0.13052164 -0.17338914 0.013099882 0.24632628 0.27175263 0.18034594 0.2698561 0.22955744
-0.041167 0.18026058 0.26958296 0.24065623 -0.06826774 0.028642934 0.15309128 0.17771564
-0.18672574 0.17709915 -0.23152612 -0.089452825 0.040992122 0.24756257 -0.032287866 -0.034303565
-0.016512979 -0.015075943 0.07034989 -0.09303648 -0.12029621 0.046102535 -0.060077786 -0.08800622
0.04205105 -0.30649304 -0.20171879 -0.16351473 -0.5180292 -0.2053473 -0.038646914 -0.35002974
-0.29866713 0.0026566584 -0.41218323 -0.24467207 0.120388575 -0.0027259209 -0.057129916 0.22199589
-0.12861301 0.01730387 0.21115097 -0.046946835 0.2240055 0.09117388 0.25871485 0.13040909
0.10214995 0.047892302 0.061011568 -0.12082387 -0.2511093 -0.07252161 -0.017617915 0.059228458
0.09657644 0.1171543 -0.13282523 0.109806865 0.20539948 -0.109991744 -0.16050671 0.051605877
-0.107065976 0.17787334 -0.17487313 0.18846746 0.03493362 -0.029887732 0.18866786 -0.05562802
-0.08186619 0.17920813 0.110692486 0.1165017 0.047072224 0.052791815 -0.10347722 -0.066133015
0.14896995 0.05250382 -0.04819673 -0.08100288 0.18636312 0.0053398963 -0.040214565 -0.033026557
0.10302927 -0.04580812 0.1828313 -0.06534338 0.09836271 0.026747977 0.010653791 0.17025986
-0.15709282 -0.07527701 -0.18822038 0.12967074 -0.1670133 -0.021605015 0.20768681 0.058366884
0.11172217 0.23915091 0.032757085 -0.15356082 0.15735117 0.19897704 -0.087913305 -0.06255677
-0.032463755 -0.2798136 0.076687515 0.062656835 0.055017214 -0.17881808 -0.26354098 -0.0021392182
0.20709424 0.18200997 -0.024425384 -0.08092568 0.13107325 0.16474278 0.26292965 0.0117812995
0.018420769 0.19816417 0.10787226 -0.0716954 -0.008099596 -0.13902634 0.015458471 0.13819456
-0.18719204 -0.26907784 -0.107613176 0.10757615 0.0063360753 -0.10285253 -0.034912813 -0.00020054504
0.19997971 0.1594949 0.26313505 -0.10598067 0.00038634968 -0.026997281 0.055248633 -0.12797686
0.013482607 -0.17318316 -0.056880098 -0.13681495 -0.0637553 -0.0084998105 0.24104805 0.22309336
0.22039689 0.20753975 -0.022466261 0.22182593 0.016161451 -0.2507134 -0.0010024264 -0.14195983
-0.20576623 -0.09911277 0.038370855 -0.08546549 0.06994312 -0.1408205 0.046019018 0.27015758
0.2765106 -0.15442112 0.10062344 0.21208738 -0.10751378 0.2953529 0.23932968 0.099495076
-0.020810444 0.11952504 -0.15984656 -0.13654897 -0.04827739 -0.22443485 0.010644215 0.18155155
-0.02854683 0.25891393 0.21622758 0.18025747 0.20407431 -0.012887571 0.006533345 0.08139857
0.064771496 -0.10960842 -0.1148504 -0.18524948 -0.15990222 -0.00043888314 -0.01543076 -0.32909074
-0.06909857 -0.12657458 -0.26080596 0.030889312 -0.040432658 -0.14624792 -0.19129126 0.061212145
-0.034136236 -0.107840665 0.18775666 -0.1932485 -0.14270425 -0.18199785 0.0038380732 -0.032663345
-0.24349228 -0.071131684 -0.10339707 -0.05104087 0.24092159 0.16216223 -0.09514435 -0.00025427755
00000000: 9e59 babd 4377 34bb 780a 95bd 68a6 d5bc
00000010: 5cb4 03be 9dfd 8abc d3b2 0c3d 47fe f3ba
00000020: a72f 80bd 2e01 04be df51 53be 8492 afbd
00000030: 1ebf 92bd c735 80be e08a 5abd 6f9a 2abc
00000040: 77a7 05be ec8c 31be e3a0 563c f53c 7c3e
00000050: 2923 8b3e 9bac 383e 942a 8a3e 1b11 6b3e
00000060: ba9e 28bd 3b96 383e c706 8a3e 966e 763e
00000070: f5cf 8bbd 96a4 ea3c f6c3 1c3e 17fb 353e
00000080: 0835 3fbe 7b59 353e 2f15 6dbe 0b33 b7bd
00000090: 5be7 273d 0b81 7d3e 4840 04bd e581 0cbd
000000a0: 3a46 87bc 1701 77bc 9a13 903d e989 bebd
000000b0: dc5d f6bd 03d6 3c3d 2014 76bd 9b3c b4bd
000000c0: b93d 2c3d a8ec 9cbe 5f8f 4ebe 6870 27be
000000d0: 909d 04bf 9046 52be 3a4c 1ebd 1937 b3be
000000e0: e6ea 98be 551b 2e3b ae09 d3be 518b 7abe
000000f0: 498e f63d 5da5 32bb 0f01 6abd e452 633e
00000100: 21b3 03be d8c0 8d3c f637 583e 534b 40bd
00000110: b361 653e 5fb9 ba3d 4676 843e f689 053e
00000120: fe33 d13d b82a 443d 44e7 793d 8172 f7bd
00000130: 6691 80be 3686 94bd 7253 90bc 8a99 723d
00000140: dec9 c53d 98ee ef3d 5603 08be 6ce2 e03d
00000150: 3e54 523e 5a43 e1bd df5b 24be af60 533d
00000160: 6845 dbbd 6e24 363e f111 33be 9dfd 403e
00000170: 8e16 0f3d 1ed7 f4bc 2632 413e 35da 63bd
00000180: 76a9 a7bd 5682 373e beb2 e23d 7198 ee3d
00000190: cece 403d 3b3c 583d ddeb d3bd bf70 87bd
000001a0: 948b 183e 3f0e 573d ef69 45bd d7e4 a5bd
000001b0: f9d5 3e3e 4cfa ae3b 07b8 24bd db46 07bd
000001c0: 0301 d33d 4ca1 3bbd 2138 3b3e c0d2 85bd
000001d0: 6372 c93d 931e db3c 3d8d 2e3c 9a58 2e3e
000001e0: f1dc 20be d52a 9abd d8bc 40be 68c8 043e
000001f0: 8905 2bbe 00fd b0bc daab 543e 1d12 6f3d
00000200: 98ce e43d fae3 743e 4b2c 063d 0c3f 1dbe
00000210: aa20 213e a3c0 4b3e e40b b4bd c41d 80bd
00000220: b7f8 04bd ba43 8fbe 580e 9d3d 3a52 803d
00000230: bb59 613d 161c 37be d8ee 86be 2032 0cbb
00000240: 8310 543e d260 3a3e be17 c8bc 5dbc a5bd
00000250: 1138 063e 55b2 283e b79e 863e 5a06 413c
00000260: 27e7 963c 8ceb 4a3e 22ec dc3d 0ad5 92bd
00000270: 2bb4 04bc ec5c 0ebe 8745 7d3c e082 0d3e
00000280: 45af 3fbe 92c4 89be 4c64 dcbd e250 dc3d
00000290: da9e cf3b 59a4 d2bd bd00 0fbd 6649 52b9
000002a0: 7bc7 4c3e a252 233e a3b9 863e 650c d9bd
000002b0: fa8e ca39 6729 ddbc 644c 623d 5e0c 03be
000002c0: 27e6 5c3c ed56 31be 1bfb 68bd 3819 0cbe
000002d0: 2492 82bd ca42 0bbc 4dd5 763e 9672 643e
000002e0: b9af 613e 4d85 543e 2a0b b8bc 5626 633e
000002f0: 0565 843c 825d 80be d963 83ba eb5d 11be
00000300: 62b4 52be a3fb cabd c22a 1d3d 8808 afbd
00000310: 573e 8f3d 4033 10be 707e 3c3d 1852 8a3e
00000320: cc92 8d3e 9220 1ebe aa13 ce3d 6f2d 593e
00000330: 2f30 dcbd 7f38 973e d712 753e 13c4 cb3d
00000340: aa7a aabc 8bc9 f43d d1ae 23be 7ed3 0bbe
00000350: 83be 45bd 40d2 65be 1365 2e3c a6e8 393e
00000360: 0bdb e9bc 5e90 843e c36a 5d3e 6a95 383e
00000370: dbf8 503e 6426 53bc ac15 d63b 4bb4 a63d
00000380: eba6 843d 617a e0bd b036 ebbd 0ab2 3dbe
00000390: 68bd 23be e619 e6b9 4cd1 7cbc 957e a8be
000003a0: 8d83 8dbd c49c 01be 5c88 85be 950b fd3c
000003b0: b79c 25bd 04c2 15be dbe1 43be 96b9 7a3d
000003c0: 70d2 0bbd 91db dcbd 4843 403e efe2 45be
000003d0: 1021 12be a55d 3abe 2f88 7b3b 00ca 05bd
000003e0: 0a56 79be 7dad 91bd d8c1 d3bd 3b10 51bd
000003f0: 26b4 763e db0d 263e 0adb c2bd 8e50 85b9

enc1.conv.bias f4 [16]
0.052476168 0.077169724 -0.09191675 -0.36861926 -0.01657862 -0.021430673 -0.19309866 -0.013302309
0.096947476 0.08422501 0.048834782 -0.022456022 -0.107988395 0.021385051 -0.3456841 0.08766542
00000000: 40f1 563d 290b 9e3d d93e bcbd aabb bcbe
00000010: e3cf 87bc 618f afbc a8bb 45be eef1 59bc
00000020: 668c c63d 297e ac3d fb06 483d b1f5 b7bc
00000030: 0529 ddbd b42f af3c 82fd b0be ed89 b33d

enc2.conv.weight f4 [32, 16, 3, 3]
0.16336979 0.0970999 -0.03544077 0.15648136 0.19451565 -0.028685678 0.19602221 0.18060693
0.05854193 0.020868441 0.10195915 0.20123316 0.045342162 0.033046853 0.2585487 0.12390637
0.19091688 0.15642926 -0.57223725 -0.5212904 0.09146902 -0.58167017 -0.37031344 0.15315303
-0.49228162 -0.3964769 0.16068871 0.20777792 0.09478262 -0.033414736 0.0030579756 0.089261524
-0.043739412 0.15241814 0.0027480654 0.060818754 0.08037524 -0.010422749 -0.092914365 0.002172133
-0.022012414 -0.076606855 0.08632171 0.027570153 -0.1108249 0.1551262 -0.036526494 0.040942196
-0.094501846 -0.18679497 -0.04870373 -0.06743232 -0.17612536 -0.051465433 0.13310026 0.04875129
-0.04686677 0.10181652 0.035827044 -0.016296348 0.12953046 0.08165105 -0.1281659 -0.0964593
-0.28374183 -0.31583184 -0.3510814 -0.39335635 -0.45875666 -0.22526231 -0.4316751 -0.33046854
-0.20962116 -0.1170576 0.005436269 -0.1355442 -0.10172392 0.065982945 -0.20993944 0.03470021
0.103321545 -0.050426513 -0.18990083 -0.24358472 -0.20395876 -0.2562608 -0.34941083 -0.10418735
-0.20047721 -0.2751726 -0.3318868 -0.23268872 -0.15006743 -0.51342714 -0.16973163 -0.21332602
-0.3702744 -0.17975809 -0.122664355 0.053837944 -0.10448583 -0.15187685 -0.11886342 -0.2278554
-0.29211068 -0.06106774 -0.25564766 -0.20036769 0.1367457 0.028405342 -0.088032626 0.05333383
-0.026969407 -0.11010664 0.10476504 -0.051144514 -0.05199771 0.1527537 0.19351432 0.31048208
0.15282087 0.2618788 0.3056809 0.13854498 0.1360676 0.19077647 0.4559191 0.42552686
0.41105103 0.46023387 0.44889998 0.47003448 0.55471474 0.5495949 0.5319368 -0.06735222
-0.12157924 -0.07423471 -0.041375306 -0.16084784 -0.11297689 -0.080049194 -0.21398278 -0.13828635
-0.32856464 -0.019052716 -0.20362166 -0.27392128 -0.09553903 -0.35210094 -0.24295747 -0.07080318
-0.21797916 0.079885416 -0.027848594 -0.07546483 0.054756843 0.042369016 -0.00418913 -0.15774386
-0.1783301 -0.13970628 -0.35174003 -0.4447089 -0.18061222 -0.35119814 -0.69037426 -0.31520328
-0.1106798 -0.5361696 -0.35512924 -0.009033212 0.11765758 -0.014439112 -0.15648592 -0.08968722
-0.15022072 -0.029947177 0.05283636 -0.18354766 -0.007798947 -0.03176556 0.117420085 -7.8832716e-05
-0.0799157 1.845659e-05 0.008639589 -0.061513234 0.037376903 0.024524903 0.032817397 0.10795784
-0.00022300586 -0.11669816 0.079303555 -0.05966814 -0.08955775 -0.0037293294 -0.0361743 -0.04902911
0.06969298 -0.06008063 0.010081053 -0.07385122 -0.01656824 0.07140913 -0.0029766168 -0.08286627
0.15777455 -0.008386085 0.051248387 0.2280663 -0.09666989 -0.049275644 0.10249092 -0.056517467
-0.15279153 -0.08493967 -0.018395388 -0.023092438 0.023096113 -0.020997724 -0.10266135 -0.0163877
-0.10370902 -0.12246653 0.066013426 0.010035832 0.043428537 0.03873497 0.1271886 -0.0016033938
-0.00012845855 0.07686428 -0.036697783 -0.040097244 0.058943227 -0.024030015 0.08211384 -0.0720402
-0.050294634 -0.10502256 -0.113069266 -0.14696154 -0.12556452 0.14754348 -0.030584097 0.06999356
0.11865265 -0.03228858 -0.045794748 0.008938708 -0.027415942 0.011593352 0.04125503 0.020146599
00000000: 694a 273e 50dc c63d 572a 11bd a63c 203e
00000010: 1c2f 473e 3afe eabc 0cba 483e 06f1 383e
00000020: aac9 6f3d 4bf4 aa3c f5cf d03d 1110 4e3e
00000030: b4b8 393d 235c 073d 7f60 843e 9fc2 fd3d
00000040: b77f 433e fe2e 203e 247e 12bf 4a73 05bf
00000050: 1c54 bb3d 56e8 14bf b999 bdbe 26d4 1c3e
00000060: 560c fcbe 05ff cabe 958b 243e bcc3 543e
00000070: 641d c23d e4dd 08bd 5168 483b bfce b63d
00000080: 1928 33bd 8013 1c3e e318 343b 161d 793d
00000090: c69b a43d 2ec4 2abc e349 bebd 585a 0e3b
000000a0: 6153 b4bc 0ee4 9cbd 70c9 b03d cdda e13c
000000b0: 2af8 e2bd 67d9 1e3e ce9c 15bd 01b3 273d
000000c0: 2f8a c1bd 2e47 3fbe 907d 47bd f519 8abd
000000d0: 355a 34be 6bcd 52bd 6f4b 083e 6faf 473d
000000e0: 5ff7 3fbd 2e85 d03d 61bf 123d eb7f 85bc
000000f0: a2a3 043e aa38 a73d ec3d 03be 748c c5bd
00000100: 9c46 91be b6b4 a1be f1c0 b3be 0166 c9be
00000110: 27e2 eabe 2aab 66be 8504 ddbe 2c33 a9be
00000120: eea6 56be e5bb efbd bb22 b23b 19cc 0abe
00000130: a154 d0bd 1122 873d 5dfa 56be cf21 0e3d
00000140: 3f9a d33d 088c 4ebd 5d75 42be 466e 79be
00000150: 91da 50be 9e34 83be fae5 b2be 2d60 d5bd
00000160: e649 4dbe 6ce3 8cbe 11ed a9be f445 6ebe
00000170: 47ab 19be f66f 03bf 21ce 2dbe 2372 5abe
00000180: 9b94 bdbe 8112 38be 7337 fbbd 2d85 5c3d
00000190: abfc d5bd 9b85 1bbe aa6e f3bd ed52 69be
000001a0: 888f 95be 2b22 7abd 40e4 82be 302d 4dbe
000001b0: 1107 0c3e 52b2 e83c 734a b4bd 9374 5a3d
000001c0: f2ee dcbc 977f e1bd 0e8f d63d e97c 51bd
000001d0: 8dfb 54bd 776b 1c3e 9e28 463e 82f7 9e3e
000001e0: 137d 1c3e fa14 863e 3582 9c3e bcde 0d3e
000001f0: 4e55 0b3e e85a 433e 3a6e e93e a8de d93e
00000200: 4875 d23e c6a3 eb3e 38d6 e53e 5ca8 f03e
00000210: c901 0e3f 40b2 0c3f 032d 083f f6ef 89bd
00000220: 89fe f8bd 5e08 98bd 2779 29bd 4cb5 24be
00000230: 6d60 e7bd d5f0 a3bd 4d1e 5bbe f09a 0dbe
00000240: a039 a8be 7114 9cbc 3282 50be 693f 8cbe
00000250: f8a9 c3bd 9346 b4be d8c9 78be 4201 91bd
00000260: ee35 5fbe f79a a33d bc22 e4bc 4e8d 9abd
00000270: b648 603d 228b 2d3d f844 89bb 9b87 21be
00000280: 2a9c 36be 2a0f 0fbe 4517 b4be e3b0 e3be
00000290: 69f2 38be 3ed0 b3be 5ebc 30bf 5362 a1be
000002a0: 17ac e2bd 6942 09bf 80d3 b5be 0a00 14bc
000002b0: 75f6 f03d 0692 6cbc d83d 20be efad b7bd
000002c0: 76d3 19be c853 f5bc f06a 583d ebf3 3bbe
000002d0: 4f8e ffbb 9b1c 02bd f179 f03d fe52 a5b8
000002e0: d8aa a3bd 3ad3 9a37 108d 0d3c 4df5 7bbd
000002f0: 8618 193d 73e8 c83c 896b 063d 0019 dd3d
00000300: aed6 69b9 72ff eebd e769 a23d 9466 74bd
00000310: 0e6a b7bd c467 74bb 812b 14bd c0d2 48bd
00000320: 31bb 8e3d 1b17 76bd 002b 253c 4f3f 97bd
00000330: 1eba 87bc f33e 923d 5813 43bb cab5 a9bd
00000340: a78f 213e ca65 09bc d4e9 513d 368a 693e
00000350: ddfa c5bd 42d5 49bd c2e6 d13d dc7e 67bd
00000360: 6275 1cbe daf4 adbd edb1 96bc 5a2c bdbc
00000370: 0f34 bd3c 6b03 acbc 1d40 d2bd 7f3f 86bc
00000380: 6565 d4bd bbcf fabd 0c32 873d 556d 243c
00000390: 1fe2 313d 8fa8 1e3d ba3d 023e f828 d2ba
000003a0: d4b2 06b9 056b 9d3d 6a50 16bd 023d 24bd
000003b0: 746e 713d 98da c4bc 4d2b a83d d089 93bd
000003c0: bf01 4ebd 1116 d7bd dc90 e7bd 167d 16be
000003d0: fc93 00be a315 173e 808b fabc c958 8f3d
000003e0: 2900 f33d 0841 04bd 4693 3bbd a973 123c
000003f0: 6697 e0bc 0bf2 3d3c 09fb 283d 7b0a a53c

enc2.conv.bias f4 [32]
-0.020670537 0.16945887 -0.11221205 0.08617369 0.22472695 0.111904085 0.1319463 0.19115348
0.0478508 0.015692174 0.081542976 0.22937298 0.23395315 0.044791307 0.24588637 0.11387303
0.07248816 0.109306015 0.15764353 0.10337844 -0.08320489 0.20751388 0.14998135 0.21254337
0.1600632 0.10378652 0.0588188 -0.020434454 0.2811541 -0.08636602 0.25183308 -0.011217062
00000000: 4255 a9bc a086 2d3e 6ecf e5bd d57b b03d
00000010: d21e 663e f82d e53d ee1c 073e bdbd 433e
00000020: 33ff 433d e08c 803c 0100 a73d c0e0 6a3e
00000030: 6a91 6f3e 1777 373d a3c9 7b3e 4336 e93d
00000040: ac74 943d d5db df3d 4e6d 213e 13b8 d33d
00000050: 5367 aabd 857e 543e b694 193e f8a4 593e
00000060: 9ce7 233e 078e d43d fbeb 703d 2866 a7bc
00000070: 6ef3 8f3e abe0 b0bd 44f0 803e c5c7 37bc

enc3.conv.weight f4 [64, 32, 3, 3]
0.10639112 -0.06132473 -0.17247723 0.0072570527 0.04428662 -0.020032046 0.1006383 0.008347255
-0.1527665 -0.2007543 -0.013443085 -0.119253434 0.118190475 0.002784411 0.10408302 -0.07283639
-0.07032566 -0.040643275 0.06530621 -0.040721815 -0.053038243 0.04924648 0.0068420037 -0.012177813
-0.013448762 0.014322942 -0.028908709 -0.19734699 0.13440275 0.02404881 -0.04491565 0.13380964
0.04374623 0.034062702 0.1636372 0.029313903 0.0007343376 0.07220817 -0.084116176 0.1875101
0.1324629 0.06471055 0.032106858 0.11629214 0.0056414357 -0.41376337 0.13177358 -0.15727729
-0.2025034 0.11632696 -0.15684201 -0.25984347 0.12962154 -0.08749329 -0.27758023 -0.021183167
0.028981186 -0.30492657 -0.072268054 -0.0037944752 -0.27706197 0.03629974 0.06785893 -0.053855598
0.0060619633 0.096003346 0.06707109 0.055562224 0.046604358 -0.1268066 -0.033328395 -0.008418875
-0.05005823 -0.056391172 -0.082671046 0.07070159 -0.015200007 0.094622776 0.034279898 0.007171324
0.014490313 0.010333798 0.052553665 0.0011189533 -0.073555365 -0.070457876 -0.03724652 -0.37042785
-0.30816153 -0.1506718 -0.08918998 -0.37976125 -0.27419358 0.009737411 -0.21974966 -0.0537947
0.0024804962 -0.14779857 -0.089517415 -0.09574256 0.028014354 0.09901324 -0.11401728 0.03360069
0.024318118 -0.24643672 -0.08158345 -0.09449853 0.0019618412 -0.16880344 -0.16139914 -0.048266895
-0.20918241 -0.049507856 0.110952236 -0.064233236 0.062231585 0.16740265 0.0040420275 -0.16376157
0.2323516 -0.03646578 -0.09791338 0.2609469 0.115788944 -0.04086229 0.06517745 0.053043578
0.0075393403 -0.07242526 0.025862182 0.07601764 -0.113432854 -0.00018858054 -0.26022103 -0.0072347363
0.089947514 0.18019797 -0.09756016 0.08944968 0.097746946 -0.14864178 0.07381374 0.05564898
-0.1013347 -0.16091475 -0.14861761 -0.1802384 -0.16138355 -0.161629 -0.3821709 -0.25406048
-0.25919014 0.04452364 0.31355575 -0.15606064 0.3979232 0.33558673 0.21398541 -0.07472105
0.32705766 -0.23779897 0.13656962 -0.053334307 0.08069147 0.23922127 0.005913404 0.0764937
-0.009084152 -0.15711713 0.04678765 0.07157715 0.14540592 -0.1365824 -0.07586977 0.027585456
-0.07441892 -0.21287851 0.20440207 -0.058060437 -0.028997732 0.06143696 -0.012470187 0.080856994
0.21454099 -0.0074482197 -0.18840463 0.061119445 -0.06778741 -0.12568888 -0.022550482 -0.011676289
-0.1248262 -0.10924177 -0.081236765 -0.22131805 -0.1266469 -0.16226381 -0.0918706 0.07577624
-0.018459715 -0.030846927 0.11528885 0.099387154 -0.102665074 0.23344494 0.025858594 -0.19380422
-0.021694344 -0.052571334 -0.29475716 -0.12768537 0.009679334 -0.43532413 -0.13817912 -0.06911793
0.0019487126 -0.048621617 0.025705691 -0.010577807 -0.13547333 0.026523916 0.020363474 -0.20110644
-0.09277055 0.04699231 -0.040504213 -0.12582001 0.0048028366 0.024372224 -0.15995094 -0.12086434
-0.039310265 0.02021495 -0.11270246 0.10604137 -0.22400133 -0.14380747 0.08337212 -0.1008239
-0.23479152 0.14168915 0.0026326815 0.020888243 0.015673349 -0.14880437 -0.08918791 0.027751846
-0.059378702 -0.051918697 -0.14940432 -0.13001141 -0.017767992 -0.08036478 0.037655063 0.07908829
00000000: 96e3 d93d a42f 7bbd df9d 30be 92cc ed3b
00000010: e365 353d 3f1a a4bc 741b ce3d edc2 083c
00000020: d26e 1cbe 8992 4dbe 6340 5cbc 253b f4bd
00000030: d90d f23d aa7a 363b 7a29 d53d 3f2b 95bd
00000040: e606 90bd 9079 26bd 43bf 853d ebcb 26bd
00000050: a13e 59bd adb6 493d e332 e03b 7385 47bc
00000060: 3258 5cbc c6aa 6a3c f5d1 ecbc 5415 4abe
00000070: e0a0 093e 0302 c53c 79f9 37bd 6505 093e
00000080: 3f2f 333d 5585 0b3d 8390 273e b623 f03c
00000090: 9080 403a e1e1 933d 1a45 acbd a602 403e
000000a0: 5ba4 073e f786 843d 7b82 033d 932a ee3d
000000b0: cbdb b83b cbd8 d3be a7ef 063e 4c0d 21be
000000c0: 0d5d 4fbe d43c ee3d 319b 20be 340a 85be
000000d0: 82bb 043e af2f b3bd ff1e 8ebe 5288 adbc
000000e0: f469 ed3c 561f 9cbe 4601 94bd bbac 78bb
000000f0: 11db 8dbe 09af 143d 9ff9 8a3d b097 5cbd
00000100: 6fa3 c63b 679d c43d 915c 893d 3795 633d
00000110: 36e4 3e3d 97d9 01be 5b83 08bd 52ef 09bc
00000120: dc09 4dbd 6efa 66bd 704f a9bd ffcb 903d
00000130: 7309 79bc 96c9 c13d 1469 0c3d 6dfd ea3b
00000140: c768 6d3c 174f 293c 8342 573d d8a9 923a
00000150: 32a4 96bd 384c 90bd cf8f 18bd b8a8 bdbe
00000160: 59c7 9dbe b549 1abe 3ca9 b6bd 1170 c2be
00000170: 1a63 8cbe a989 1f3c 0e06 61be d557 5cbd
00000180: d28f 223b 8258 17be e854 b7bd ad14 c4bd
00000190: 5c7e e53c 74c7 ca3d e481 e9bd e1a0 093d
000001a0: ca36 c73c e859 7cbe 3915 a7bd 7288 c1bd
000001b0: 3c92 003b cfda 2cbe d145 25be 82b3 45bd
000001c0: ea33 56be c0c8 4abd ed3a e33d b78c 83bd
000001d0: 8ce6 7e3d 9a6b 2b3e fc72 843b 1db1 27be
000001e0: 94ed 6d3e 245d 15bd cf86 c8bd d59a 853e
000001f0: c122 ed3d 375f 27bd c17b 853d 3944 593d
00000200: 920c f73b b253 94bd eddc d33c 23af 9b3d
00000210: 7c4f e8bd b4bd 45b9 b13b 85be 5e11 edbb
00000220: 6736 b83d d185 383e 9fcd c7bd 6531 b73d
00000230: 8d2f c83d 8d35 18be a82b 973d 2ff0 633d
00000240: 9188 cfbd d6c6 24be 372f 18be 6a90 38be
00000250: bb41 25be 1382 25be e7ab c3be 3714 82be
00000260: 92b4 84be 6c5e 363d 618a a03e 5cce 1fbe
00000270: 97bc cb3e 06d2 ab3e fe1e 5b3e 5a07 99bd
00000280: 1a74 a73e 9381 73be e8d8 0b3e 1375 5abd
00000290: 9241 a53d 6cf6 743e 3ac5 c13b bba8 9c3d
000002a0: b2d5 14bc 50e3 20be 68a4 3f3d 0a97 923d
000002b0: 4ae5 143e 42dc 0bbe 9c61 9bbd e5fa e13c
000002c0: f268 98bd d3fc 59be c74e 513e c8d0 6dbd
000002d0: a78c edbc 52a5 7b3d c14f 4cbc 5a98 a53d
000002e0: a2b0 5b3e 3210 f4bb 25ed 40be 6258 7a3d
000002f0: 20d4 8abd 96b4 00be cabb b8bc e84d 3fbc
00000300: e1a4 ffbd 26ba dfbd 765f a6bd 33a1 62be
00000310: baaf 01be 7c28 26be a726 bcbd 9330 9b3d
00000320: d438 97bc b2b2 fcbc 901c ec3d 7e8b cb3d
00000330: 1142 d2bd 310c 6f3e 67d5 d33c 9d74 46be
00000340: 56b8 b1bc 0a55 57bd 69ea 96be f4bf 02be
00000350: 1296 1e3c cee2 debe d47e 0dbe b48d 8dbd
00000360: f26b ff3a 7627 47bd be94 d23c 8a4e 2dbc
00000370: 85b9 0abe af48 d93c 4dd1 a63c d9ee 4dbe
00000380: 7cfe bdbd 027b 403d bfe7 25bd f6d6 00be
00000390: 1d61 9d3b 42a8 c73c 2eca 23be b987 f7bd
000003a0: cd03 21bd d399 a53c 8cd0 e6bd 382c d93d
000003b0: 9b60 65be 4442 13be 01bf aa3d c37c cebd
000003c0: 306d 70be f616 113e 1189 2c3b d21d ab3c
000003d0: 6565 803c 2c60 18be 27a8 b6bd d757 e33c
000003e0: 1537 73bd b3a8 54bd 72fd 18be b621 05be
000003f0: 2e8e 91bc 4a96 a4bd 323c 1a3d 0bf9 a13d

enc3.conv.bias f4 [64]
-0.030447504 0.081897184 0.021171797 0.23037414 -0.09507559 0.10355216 0.14299715 0.20424171
-0.015266973 -0.05479397 0.15420038 0.036958605 -0.11123597 0.16312994 0.07580385 -0.0030723964
-0.043296557 0.07188374 0.14977658 0.18706243 -0.0532585 0.11732848 0.08081973 0.20108235
-0.05817381 -0.05424209 0.13237897 0.17035371 -0.058392294 -0.09969445 0.2735123 0.15756272
-0.021838421 0.09238111 -0.009023114 0.0039402363 0.05723716 0.04935704 0.07681084 0.1538323
0.015399253 0.064093195 0.22649698 0.23398368 0.16640286 -0.03521574 -0.08053784 -0.14757985
0.02233898 0.19461626 -0.031670168 0.045974832 -0.11119012 0.0320806 0.052601673 0.10937836
0.17010051 0.23023352 0.08526532 0.17841913 0.22141509 0.11274164 -0.09211971 0.1750192
00000000: 0b6d f9bc b6b9 a73d 7a70 ad3c 33e7 6b3e
00000010: feb6 c2bd 2813 d43d d86d 123e bd24 513e
00000020: 5322 7abc a46f 60bd b4e6 1d3e e861 173d
00000030: afcf e3bd 890b 273e 0d3f 9b3d 425a 49bb
00000040: bb57 31bd c837 933d 085f 193e 4b8d 3f3e
00000050: 9625 5abd ea49 f03d d184 a53d 88e8 4d3e
00000060: a947 6ebd f42c 5ebd 5a8e 073e 3471 2e3e
00000070: c22c 6fbd 9b2c ccbd ce09 8c3e 1f58 213e
00000080: 7de6 b2bc 4f32 bd3d afd5 13bc 191d 813b
00000090: 8371 6a3d 9c2a 4a3d 004f 9d3d 3786 1d3e
000000a0: 264d 7c3c 4b43 833d d3ee 673e 6b99 6f3e
000000b0: 8365 2a3e 613e 10bd 06f1 a4bd 2c1f 17be
000000c0: 3d00 b73c 7c49 473e 94b8 01bd 1b50 3c3d
000000d0: a5b7 e3bd f266 033d da74 573d c301 e03d
000000e0: d42e 2e3e 56c2 6b3e 969f ae3d 81b3 363e
000000f0: a3ba 623e 17e5 e63d 42a9 bcbd 3c38 333e

dec1.up.weight f4 [64, 32, 2, 2]
-0.055078726 -0.09148738 0.15542817 0.23084065 0.011965594 0.14102985 0.19182174 0.13543504
0.24648921 -0.27714804 0.3575042 -0.063615456 -0.39011008 0.036817867 -0.35434118 -0.040163886
0.0033821913 -0.0850145 -0.09810866 0.04970526 0.033446625 -0.09299394 0.011896376 -0.027770042
-0.24040829 -0.560635 -0.071535945 -0.123864435 0.43120444 0.20089428 0.027294368 -0.10748642
-0.05956386 0.015156383 -0.506656 -0.86600643 -0.3217499 -0.005782355 -0.010067101 0.021487027
0.08970094 0.15448476 0.22042076 0.21202612 -0.12294904 -0.6312369 -0.33598047 -0.49261826
-0.14499936 0.0928344 0.17685854 0.13649161 0.005507529 0.027888656 -0.20549986 0.101098135
0.20083047 0.11493975 0.2775431 0.30091542 0.24321549 0.22822954 0.22315179 0.18223909
-0.23969032 0.14689405 -0.2147463 0.15892081 0.13118337 0.19809818 0.08666983 -0.05503125
0.24379882 0.056806657 0.17469223 0.16560267 0.17467776 0.16508116 0.123401135 0.047878142
0.058998898 -0.21124229 -0.13818422 -0.21461298 0.03949214 -0.72683436 0.07641528 0.08881509
0.1774065 0.22698364 0.3117977 0.14034005 -0.46975636 -0.4171065 -0.43216792 -0.4518333
0.09408664 0.20137037 -0.1415875 -0.17340994 0.33298382 0.11498116 -0.01876182 0.0047491784
0.2391588 0.2402058 0.24855027 0.3732703 0.10972125 0.23664987 -0.07559245 0.08596635
0.24298775 -0.030709073 0.1465339 0.16328654 -0.25215977 0.04082698 -0.46009716 -0.34117204
0.0031361254 -0.24179561 0.062822595 0.05474354 -0.43494883 0.21406648 0.1294061 0.14245985
0.14456104 -0.5270234 0.080755495 0.29421625 0.28233725 0.1857472 0.4053513 0.30657163
0.18780698 -0.86900264 0.010287483 0.009509805 0.09932561 0.100139715 0.067291185 0.046032388
0.025867863 0.05082444 0.042091426 -0.04515358 -0.011369799 -0.0132337175 -0.003984825 -0.023416514
-0.033343095 -0.59850466 -0.010668508 -1.1626377 -0.66230327 0.08139728 0.07266934 0.018821053
0.25886285 0.18577097 0.1992649 -0.7191832 0.08255414 0.019087583 -0.012100786 0.0023713722
0.3714712 0.31037202 0.30253994 0.1619708 -0.7027846 -0.2730904 -0.66407806 -0.41405383
-0.12855014 0.22349618 0.27081198 0.09540473 0.116854794 0.45731714 -0.12223086 0.17644939
0.16416244 -0.09703194 0.44457632 0.048847754 0.26239643 0.2419533 0.20122442 0.29508132
-0.20049061 0.21428448 -0.20228513 0.15703309 0.28656197 0.26006222 0.13567759 -0.51782066
0.2552173 0.24721703 0.26288337 0.26580358 0.25295296 0.4847595 0.34055975 0.38656625
0.0036111746 -0.31175682 -0.5845272 -0.33730483 0.07822272 -1.0048007 0.19608638 0.28823307
0.28073707 0.030981164 0.35451725 0.08875861 -0.7222768 -0.47651795 -0.5859863 -0.42266637
0.20141205 0.07592849 0.18275216 0.20463246 0.25418752 0.32148868 0.13251685 0.19177763
0.40495583 0.15537998 0.36372918 0.04878491 0.13591799 -0.24690352 0.10763305 -0.07721767
0.4225749 0.26693305 0.3502485 0.15442549 -0.28920197 -0.12852745 -0.3227057 0.029637402
0.3034413 0.08555848 0.09897687 0.40726548 0.20751654 0.14826186 0.16885859 0.14490461
00000000: 3b9a 61bd bc5d bbbd 9028 1f3e 7e61 6c3e
00000010: 570b 443c 216a 103e eb6c 443e 7caf 0a3e
00000020: ab67 7c3e 59e6 8dbe ca0a b73e d248 82bd
00000030: 82bc c7be 55ce 163d 356c b5be e382 24bd
00000040: c1a7 5d3b 151c aebd 31ed c8bd be97 4b3d
00000050: 54ff 083d 9b73 bebd 04e9 423c 007e e3bc
00000060: 972d 76be c685 0fbf 7081 92bd a3ac fdbd
00000070: d4c6 dc3e 3bb7 4d3e 7098 df3c d721 dcbd
00000080: 3cf9 73bd 7a52 783c 35b4 01bf 99b2 5dbf
00000090: 67bc a4be e979 bdbb 7bf0 24bc 9005 b03c
000000a0: 20b5 b73d 4131 1e3e fbb5 613e 601d 593e
000000b0: b5cc fbbd be98 21bf a205 acbe 7638 fcbe
000000c0: b67a 14be f61f be3d 681a 353e 75c4 0b3e
000000d0: 8078 b43b c076 e43c 8e6e 52be 8a0c cf3d
000000e0: 81a6 4d3e 8865 eb3d 211a 8e3e 9611 9a3e
000000f0: 7b0d 793e 01b5 693e e781 643e e29c 3a3e
00000100: 6171 75be 656b 163e 74e6 5bbe 23bc 223e
00000110: ef54 063e 40da 4a3e f47f b13d 7368 61bd
00000120: 66a6 793e 19ae 683d 85e2 323e bf93 293e
00000130: bade 323e 090b 293e bcb9 fc3d df1b 443d
00000140: d4a8 713d e64f 58be 2a80 0dbe 81c3 5bbe
00000150: 83c2 213d d111 3abf 9d7f 9c3d b0e4 b53d
00000160: 0daa 353e 666e 683e f3a3 9f3e 4db5 0f3e
00000170: e883 f0be fc8e d5be 1d45 ddbe b256 e7be
00000180: 7fb0 c03d 0934 4e3e 50fc 10be 6092 31be
00000190: db7c aa3e 3e7b eb3d 63b2 99bc ff9e 9b3b
000001a0: 0be6 743e 82f8 753e f683 7e3e 491d bf3e
000001b0: 89b5 e03d 5854 723e 37d0 9abd 200f b03d
000001c0: c8d1 783e 9891 fbbc fc0c 163e 9634 273e
000001d0: 161b 81be 313a 273d db91 ebbe 1aae aebe
000001e0: 7487 4d3b 4599 77be 22a9 803d c33a 603d
000001f0: 9db1 debe 3e34 5b3e 0883 043e ffe0 113e
00000200: cf07 143e 01eb 06bf 2363 a53d 83a3 963e
00000210: 828e 903e 8434 3e3e 358a cf3e f5f6 9c3e
00000220: 7950 403e f576 5ebf d58c 283c 03cf 1b3c
00000230: 3a6b cb3d 0d16 cd3d f6cf 893d 758c 3c3d
00000240: d7e8 d33c 4a2d 503d 0f68 2c3d f6f2 38bd
00000250: 6548 3abc 3cd2 58bc 2393 82bb fdd3 bfbc
00000260: c592 08bd 9a37 19bf f7ca 2ebc 50d1 94bf
00000270: b58c 29bf 9eb3 a63d aad3 943d 9c2e 9a3c
00000280: ac89 843e bf3a 3e3e 190c 4c3e 641c 38bf
00000290: 2512 a93d 905d 9c3c 6042 46bc 0669 1b3b
000002a0: 7931 be3e 15e9 9e3e 84e6 9a3e acdb 253e
000002b0: b1e9 33bf 81d2 8bbe 0501 2abf ddfe d3be
000002c0: a6a2 03be 2fdc 643e dea7 8a3e 8e63 c33d
000002d0: 9151 ef3d 7925 ea3e 2c54 fabd 26af 343e
000002e0: 331a 283e afb8 c6bd 829f e33e 9514 483d
000002f0: d358 863e 9bc2 773e c60d 4e3e e614 973e
00000300: 694d 4dbe 646d 5b3e d523 4fbe 48cd 203e
00000310: 40b8 923e e026 853e 11ef 0a3e e58f 04bf
00000320: d8ab 823e 7626 7d3e a698 863e 6817 883e
00000330: 0d83 813e 6632 f83e d95d ae3e 03ec c53e
00000340: 75a9 6c3b 979e 9fbe 93a3 15bf 38b3 acbe
00000350: 3c33 a03d 4f9d 80bf deca 483e 4993 933e
00000360: c5bc 8f3e 36cc fd3c 4983 b53e 13c7 b53d
00000370: 22e7 38bf 29fa f3be 3303 16bf ba67 d8be
00000380: f63e 4e3e 6580 9b3d 6223 3b3e 2c8b 513e
00000390: de24 823e 2a9a a43e 7fb2 073e 5b61 443e
000003a0: 5f56 cf3e ee1b 1f3e b63a ba3e b0d2 473d
000003b0: 162e 0b3e 47d4 7cbe b76e dc3d 4c24 9ebd
000003c0: bd5b d83e 73ab 883e c553 b33e b721 1e3e
000003d0: 4812 94be b39c 03be ae39 a5be 23ca f23c
000003e0: a85c 9b3e 4939 af3d 63b4 ca3d 1a85 d03e
000003f0: 377f 543e f5d1 173e 44e9 2c3e e061 143e

dec1.up.bias f4 [32]
0.34436166 0.24263355 0.2707104 0.3152633 -0.07489437 -0.049203135 0.34976095 -0.013666004
0.35400605 0.0104343705 0.2442492 -0.017587073 0.21504521 0.09790928 0.21567573 0.24668333
0.32065344 0.20137769 0.30156308 0.21721587 -0.12045644 0.22737445 0.26872182 -0.044751547
0.04601782 0.29968125 0.1389689 0.10876224 0.17519793 0.03154347 0.28870168 0.2876018
00000000: 2c50 b03e ee74 783e 8e9a 8a3e 316a a13e
00000010: 3862 99bd 3a89 49bd de13 b33e 60e7 5fbc
00000020: 4840 b53e ecf4 2a3c 761c 7a3e c412 90bc
00000030: d034 5c3e a984 c83d 19da 5c3e 8e9a 7c3e
00000040: b02c a43e f435 4e3e 7a66 9a3e d66d 5e3e
00000050: deb1 f6bd d9d4 683e e895 893e 664d 37bd
00000060: 2e7d 3c3d d26f 993e dd4d 0e3e bdbe de3d
00000070: 1667 333e ba33 013d b5d0 933e 8b40 933e

dec2.up.weight f4 [32, 16, 2, 2]
0.21299873 0.2105217 0.29704735 0.33075207 0.14752755 0.24100694 0.34295553 0.37508756
-0.0668102 -0.11022688 -0.2973769 -0.04602204 -0.30410865 -0.2822237 0.024964826 -0.14849764
0.25602677 0.16192111 0.28137293 0.24299154 -0.12735893 0.05740002 0.12673473 0.23079744
0.34440857 0.19351318 0.2829919 0.25334993 0.32388413 0.3882273 0.36380142 0.35568115
0.21138567 0.21697222 0.3944195 0.1714173 0.30582017 0.3240282 -0.11711142 0.0752052
0.23566005 0.2329383 0.23057497 0.28699535 0.30191898 0.24310508 0.26516974 0.19577762
0.2804269 0.2425223 0.14776218 -0.062456444 0.21226826 0.29484275 0.20158789 0.23296335
0.1673988 0.15728153 0.19413713 0.33024243 0.3014753 0.048548855 0.18453288 0.30996528
0.068262495 0.14644864 0.08881424 0.2148023 0.06923562 0.13130288 0.005977111 0.18756501
-0.21510465 -0.11581886 -0.13762233 0.0256896 -0.09318812 -0.036366776 -0.028495008 -0.19576335
0.09225688 0.15283209 0.07130385 0.014076629 -0.03732671 -0.10761328 0.070109196 0.23148473
0.18347591 0.052522678 0.12352389 0.24418575 0.119395085 0.2070209 0.23538731 0.08893984
0.07616147 0.2328823 0.07222 0.20674933 0.11689793 0.033962693 -0.3861601 -0.09567798
-0.0067858533 -0.04724376 0.08998363 0.0725741 0.11272477 0.17934692 0.084102295 0.119221814
0.026296562 -0.18708731 0.050565787 -0.08575121 0.11254895 0.20864214 0.14949064 0.081715465
-0.03368752 0.13800812 0.06677423 0.027796628 0.014269896 -0.046906974 0.15364167 0.1995921
0.25188395 -0.013735475 0.16464145 0.24157876 0.12755218 0.30196902 0.059606366 0.13591328
0.36190572 0.042387914 0.2642905 -0.044399925 0.019458449 -0.15553473 0.017373068 -0.02450467
0.23862994 0.15441339 0.11057016 0.22520995 -0.12239218 0.045581177 0.12152697 0.033873502
0.22243342 0.15701534 0.12564655 0.101755224 0.026096819 0.18733099 -0.00740818 0.18711832
0.06951831 0.22355215 0.06328729 0.22982799 0.19744338 0.19818932 -0.19738849 0.104672536
0.048288126 0.08122891 0.086367995 0.24201806 0.19972606 0.26303196 0.3262259 0.24002002
0.22611342 0.14597748 0.2719103 0.082150556 0.092655905 0.30625853 0.053409874 0.22688887
0.14492206 0.3636305 0.1506719 0.23202628 0.19211063 -0.013235218 0.070156135 0.05391005
0.34240967 0.35240912 0.46977052 0.4173384 0.45716545 0.3600948 0.38819474 0.37347716
0.024473121 -0.012611049 -0.16262476 -0.03531751 -0.2679378 -0.3554835 -0.1338867 -0.33978868
0.30974534 0.5088178 0.30899823 0.3527762 -0.058299698 0.14481805 0.38033494 0.31561977
0.21788463 0.42225853 0.41869563 0.32923472 0.43310755 0.42073405 0.48727077 0.43749592
0.4748159 0.31762537 0.3676859 0.36086756 0.45364138 0.24535866 -0.15540385 0.43240207
0.31286278 0.5559653 0.51764876 0.39617983 0.29596615 0.5359524 0.41175058 0.4516983
0.49804372 0.2876682 0.40094405 -0.10257789 0.44162136 0.3224277 0.28146487 0.41604453
0.32628173 0.32998335 0.45472023 0.53206044 0.53046286 0.26491544 0.51908344 0.37120542
00000000: 571c 5a3e 0093 573e 9716 983e 5658 a93e
00000010: 7611 173e 86ca 763e de97 af3e 7a0b c03e
00000020: c9d3 88bd a1be e1bd c941 98be 9b81 3cbd
00000030: 21b4 9bbe a07f 90be 0983 cc3c c40f 18be
00000040: f115 833e a6ce 253e 1d10 903e c6d2 783e
00000050: 616a 02be 491c 6b3d c0c6 013e 2a56 6c3e
00000060: 5256 b03e 5228 463e 50e4 903e 15b7 813e
00000070: 24d4 a53e bbc5 c63e 2e44 ba3e d71b b63e
00000080: 7c75 583e f72d 5e3e 5af1 c93e 0488 2f3e
00000090: 7694 9c3e 06e7 a53e 1dd8 efbd 2f05 9a3d
000000a0: de50 713e 6187 6e3e d81b 6c3e 0ef1 923e
000000b0: 2095 9a3e 8af0 783e 54c4 873e ee79 483e
000000c0: 1d94 8f3e c457 783e f84e 173e 54d2 7fbd
000000d0: da5c 593e a1f5 963e 0e6d 4e3e f28d 6e3e
000000e0: 976a 2b3e 690e 213e e2cb 463e 8915 a93e
000000f0: f85a 9a3e 2adb 463d 30f6 3c3e c5b3 9e3e
00000100: 35cd 8b3d a2f6 153e 3ee4 b53d 22f5 5b3e
00000110: 68cb 8d3d 4374 063e a4db c33b 0b11 403e
00000120: 6544 5cbe 7032 edbd deec 0cbe ff72 d23c
00000130: 6ad9 bebd 54f5 14bd 5d6e e9bc 3076 48be
00000140: 2df1 bc3d 0480 1c3e c107 923d a9a1 663c
00000150: e4e3 18bd 5a64 dcbd 6995 8f3d 550a 6d3e
00000160: 1ce1 3b3e 0522 573d 18fa fc3d d40b 7a3e
00000170: 6985 f43d 49fd 533e 5f09 713e 1726 b63d
00000180: 8bfa 9b3d b378 6e3e 14e8 933d 19b6 533e
00000190: 2f68 ef3d 771c 0b3d c7b6 c5be d1f2 c3bd
000001a0: dd5b debb ac82 41bd 5649 b83d bba1 943d
000001b0: 3fdc e63d b8a6 373e d33d ac3d 912a f43d
000001c0: e36b d73c d193 3fbe 121e 4f3d 559e afbd
000001d0: 1080 e63d 49a6 553e 1314 193e 705a a73d
000001e0: edfb 09bd 0052 0d3e edc0 883d c1b5 e33c
000001f0: 48cc 693c 8721 40bd 3e54 1d3e df61 4c3e
00000200: eff6 803e c20a 61bc c597 283e 6c60 773e
00000210: 0a9d 023e af9b 9a3e ce25 743d da2c 0b3e
00000220: b54b b93e f39e 2d3d 1651 873e b2dc 35bd
00000230: 5367 9f3c 7f44 1fbe f751 8e3c 05be c8bc
00000240: 685b 743e 8b1e 1e3e 9c72 e23d 709d 663e
00000250: c0a8 fabd 54b3 3a3d 22e3 f83d f1be 0a3d
00000260: 96c5 633e a1c8 203e 7da9 003e 0b65 d03d
00000270: ffc8 d53c b2d3 3f3e 51c0 f2bb f29b 3f3e
00000280: 9e5f 8e3d dbea 643e c49c 813d 0758 6b3e
00000290: 992e 4a3e 24f2 4a3e 3520 4abe 8e5e d63d
000002a0: c5c9 453d 585b a63d b4e1 b03d 95d3 773e
000002b0: fd84 4c3e 20ac 863e 1507 a73e cfc7 753e
000002c0: 478a 673e 1f7b 153e d437 8b3e 8d3e a83d
000002d0: 61c2 bd3d ebcd 9c3e 50c4 5a3d 8e55 683e
000002e0: 7366 143e c72d ba3e bc49 1a3e 4c98 6d3e
000002f0: a6b8 443e 87d8 58bc 05ae 8f3d c9d0 5c3d
00000300: 5250 af3e f86e b43e c385 f03e 61ad d53e
00000310: 9711 ea3e 585e b83e 76c1 c63e 6638 bf3e
00000320: db7b c83c 939e 4ebc 1b87 26be 18a9 10bd
00000330: 252f 89be ef01 b6be 9819 09be c8f8 adbe
00000340: f196 9e3e e241 023f 0435 9e3e 159f b43e
00000350: aacb 6ebd 2f4b 143e 43bb c23e ea98 a13e
00000360: 261d 5f3e 4532 d83e 465f d63e 7491 a83e
00000370: 46c0 dd3e 746a d73e 8e7b f93e 77ff df3e
00000380: 121b f33e cb9f a23e 5441 bc3e a2c3 b83e
00000390: af43 e83e 4d3f 7b3e 3022 1fbe ce63 dd3e
000003a0: 8d2f a03e be53 0e3f a184 043f 15d8 ca3e
000003b0: e088 973e 2d34 093f f9d0 d23e 0045 e73e
000003c0: 96ff fe3e 3f49 933e 8a48 cd3e 5b14 d2bd
000003d0: 321c e23e 3e15 a53e 2a1c 903e ca03 d53e
000003e0: 660e a73e 94f3 a83e 17d1 e83e 1d35 083f
000003f0: 6acc 073f ffa2 873e a7e2 043f a30e be3e

dec2.up.bias f4 [16]
0.19056712 0.22529684 0.0974322 0.10129388 0.27721864 0.11123704 0.19821206 0.22036661
0.28159404 0.17193317 0.15704449 0.18714203 0.12106135 0.20650125 0.08002975 0.11434024
00000000: 0724 433e 37b4 663e 898a c73d 2a73 cf3d
00000010: 9aef 8d3e 3fd0 e33d 1af8 4a3e c9a7 613e
00000020: 182d 903e 400f 303e 45d0 203e 29a2 3f3e
00000030: 03ef f73d 1075 533e a3e6 a33d 372b ea3d

dec3.up.weight f4 [16, 8, 2, 2]
-0.032508492 0.1738829 0.20614955 0.30510136 -0.044200182 0.19379878 -0.0028896315 0.15953778
0.23372671 0.16602834 -0.03738708 0.24300972 -0.14259577 -0.23678157 0.059389945 -0.2807056
-0.0017469865 0.21433131 0.050110772 0.24887356 -0.18086079 0.06100799 0.09345752 0.10353209
0.23015371 0.135151 -0.0042767525 0.2196651 0.22786686 0.12271897 0.28525993 0.1568272
0.07271136 0.21739101 0.21534215 0.23052272 0.06258446 -0.04687512 0.16071355 -0.22829016
0.19627751 0.10769144 0.18802097 0.18056759 -0.2859753 -0.19480792 -0.1813529 0.021501074
0.21318468 0.26684746 0.021627171 0.2422265 0.087916605 -0.1917117 -0.12973006 -0.18174909
0.07123642 0.2713341 -0.085483685 0.21179311 0.22424859 0.24390854 0.05537215 0.056668617
-0.1768327 -0.01873931 -0.07972449 -0.013038976 -0.13742311 -0.17927523 -0.024864748 -0.014063024
-0.028837586 -0.022444498 -0.03469055 -0.020139333 0.51868314 0.51304513 0.33583808 0.521778
-0.037381478 -0.02287933 -0.029463328 -0.017890895 -0.19914049 -0.045719814 0.5355568 -0.14701855
-0.034062583 -0.021826826 -0.052690856 -0.020576688 -0.03729064 -0.02755065 -0.22404747 -0.036805615
-0.27806583 -0.1635323 -0.105432555 -0.25614333 -0.112153254 -0.15503214 -0.19768934 -0.015170605
-0.15683179 -0.11657717 -0.08437176 -0.11024415 0.4845019 0.5154493 0.5029264 0.47548556
-0.18291737 -0.08463997 -0.13044718 -0.116611816 -0.16142964 -0.027461603 -0.04789185 -0.11924885
-0.09940149 -0.33111337 -0.072611295 -0.26599813 -0.29578865 -0.22559547 -0.3129108 -0.1965989
0.04973178 0.26644957 0.06077758 0.18084428 0.1220943 0.2124896 0.32228097 0.0069098417
0.06080029 0.13672836 0.3043638 0.11736551 0.020280872 -0.1969256 -0.06716923 -0.12692681
0.2647155 0.14932796 0.07748289 0.3028585 -0.17539792 -0.12994942 -0.35108775 0.0152632035
0.25067398 0.10370077 -0.00071436376 0.17428394 0.21448466 0.20158134 0.25043738 0.2075572
-0.37134486 0.031811804 0.06592743 0.16050048 0.22549877 0.03829253 0.10592031 -0.09148568
0.27508214 -0.064985625 0.24300854 -0.016331716 -0.005907617 0.16921747 0.024592588 0.3200967
0.08304762 0.1102188 0.19718751 0.06255043 -0.13928282 -0.09632545 -0.18207099 0.03985684
0.22743225 -0.004541287 0.12182667 0.18354511 0.05346226 0.094270125 -0.0051907967 0.22691153
0.09797156 0.11540246 0.007216187 0.09023404 0.045148212 0.078176565 0.14730488 0.020960696
0.1318556 0.17885074 0.16242601 0.245934 -0.09970021 -0.16919735 -0.27263582 -0.25914913
0.3006699 0.187926 0.31017452 0.1408591 -0.028385924 -0.06667201 0.18909103 0.058085244
0.0456854 0.037538897 -0.12764737 0.07553968 0.01276111 0.036720503 -0.034626815 0.2925103
-0.07381335 0.19080327 0.07786237 0.12538657 0.1878471 0.19510567 0.22627035 -0.11694874
0.17709073 0.11935031 0.2383879 0.04811922 -0.26177496 -0.03667035 -0.18321547 -0.086944245
-0.014453301 0.27070564 0.28614292 0.100361116 -0.16523 -0.0981976 -0.36851072 -0.017456684
0.19621992 -0.063074194 0.20051366 0.05148899 0.21836446 -0.048855234 0.23771809 0.10334086
00000000: a027 05bd 5c0e 323e de18 533e 3f36 9c3e
00000010: 400b 35bd 3073 463e f95f 3dbb df5d 233e
00000020: 0e56 6f3e 5503 2a3e 3223 19bd 8ad7 783e
00000030: a004 12be de76 72be df42 733d a5b8 8fbe
00000040: 24fb e4ba ab79 5b3e f440 4d3d b6d8 7e3e
00000050: 9233 39be 84e3 793d a866 bf3d a208 d43d
00000060: 6aad 6b3e 0665 0a3e 0024 8cbb e3ef 603e
00000070: ee55 693e 1554 fb3d 970d 923e 4f97 203e
00000080: b2e9 943d c09b 5e3e a782 5c3e 260e 6c3e
00000090: 482c 803d 2000 40bd 1892 243e e5c4 69be
000000a0: f9fc 483e 548d dc3d 9288 403e b6e6 383e
000000b0: 5b6b 92be ba7b 47be 93b4 39be 0523 b03c
000000c0: 164d 5a3e 3ba0 883e 772b b13c 390a 783e
000000d0: 9f0d b43d 1250 44be f5d7 04be 6f1c 3abe
000000e0: 66e4 913d 4eec 8a3e 1212 afbd 4be0 583e
000000f0: 6ca1 653e 29c3 793e e8cd 623d 5a1d 683d
00000100: a213 35be 2e83 99bc 9846 a3bd 6ea1 55bc
00000110: a5b8 0cbe ed93 37be 28b1 cbbc 9968 66bc
00000120: cd3c ecbc 86dd b7bc ae17 0ebd 3efb a4bc
00000130: 6bc8 043f ed56 033f f8f2 ab3e 3e93 053f
00000140: 521d 19bd 6f6d bbbc 145d f1bc ed8f 92bc
00000150: 7ceb 4bbe b344 3bbd 401a 093f 088c 16be
00000160: 3585 0bbd 2cce b2bc 5ed2 57bd 7190 a8bc
00000170: 12be 18bd e7b1 e1bc b36c 65be 7cc1 16bd
00000180: a55e 8ebe 0375 27be 06ed d7bd 3825 83be
00000190: 9bb0 e5bd bfc0 1ebe 136f 4abe 218e 78bc
000001a0: 8398 20be 03c0 eebd 1acb acbd afc7 e1bd
000001b0: a210 f83e 7cf4 033f c9bf 003f d872 f33e
000001c0: b14e 3bbe b857 adbd f293 05be 2dd2 eebd
000001d0: d04d 25be 28f7 e0bc 3f2a 44bd be38 f4bd
000001e0: 0293 cbbd b187 a9be 3bb5 94bd e830 88be
000001f0: 9c71 97be 8002 67be d835 a0be 3951 49be
00000200: 8db3 4b3d 146c 883e e9f1 783d 3e2f 393e
00000210: 940c fa3d e096 593e 0302 a53e f46b e23b
00000220: ba09 793d 8502 0c3e 92d5 9b3e 545d f03d
00000230: 1224 a63c dda6 49be 0590 89bd 1af9 01be
00000240: ca88 873e 6ee9 183e 59af 9e3d 4510 9b3e
00000250: 839b 33be 7611 05be c6c1 b3be 8412 7a3c
00000260: 5758 803e 1261 d43d 2444 3bba 7d77 323e
00000270: dea1 5b3e 576b 4e3e 5439 803e e089 543e
00000280: ea20 bebe 184d 023d f604 873d 3d5a 243e
00000290: 26e9 663e a1d8 1c3d bfec d83d d85c bbbd
000002a0: 91d7 8c3e 2f17 85bd 3bd7 783e 17ca 85bc
000002b0: af94 c1bb 5847 2d3e 6576 c93c b7e3 a33e
000002c0: df14 aa3d 65ba e13d 86eb 493e 711a 803d
000002d0: 28a0 0ebe 4746 c5bd d170 3abe ed40 233d
000002e0: 00e4 683e 14cf 94bb 4380 f93d 40f3 3b3e
000002f0: 3efb 5a3d b210 c13d 8f17 aabb 7f5b 683e
00000300: 50a5 c83d 2058 ec3d c475 ec3b a0cc b83d
00000310: 55ed 383d 091b a03d 17d7 163e c4b5 ab3c
00000320: 2805 073e a624 373e 0153 263e 1fd6 7b3e
00000330: a02f ccbd 1242 2dbe ec96 8bbe 32af 84be
00000340: 68f1 993e ac6f 403e 32cf 9e3e 5e3d 103e
00000350: 9989 e8bc 568b 88bd 14a1 413e cbea 6d3d
00000360: 9d20 3b3d 63c2 193d feb5 02be 8cb4 9a3d
00000370: fa13 513c 3d68 163d d9d4 0dbd e9c3 953e
00000380: 742b 97bd ef61 433e 4e76 9f3d 5665 003e
00000390: fd5a 403e c8c9 473e 6ab3 673e d282 efbd
000003a0: 4657 353e ef6d f43d f51b 743e a918 453d
000003b0: 5e07 86be a633 16bd d69c 3bbe d30f b2bd
000003c0: 8acd 6cbc ee99 8a3e 5381 923e 218a cd3d
000003d0: 0e32 29be d31b c9bd 70ad bcbe 5201 8fbc
000003e0: e0ed 483e 0b2d 81bd 7453 4d3e 1fe6 523d
000003f0: ef9a 5f3e 6d1c 48bd 5f6c 733e 5fa4 d33d

dec3.up.bias f4 [8]
0.006333725 0.018143311 0.01934244 0.60330534 0.016146764 0.025683831 0.02085724 0.027941762
00000000: 238b cf3b 48a1 943c 0974 9e3c 3872 1a3f
00000010: 3846 843c e666 d23c cddc aa3c 1fe6 e43c

final_conv.weight f4 [1, 8, 1, 1]
-0.19313338 -0.44521654 -0.3024063 0.9077394 -0.35740912 0.33951154 -0.2363979 -0.35920823
00000000: c2c4 45be 6cf3 e3be 00d5 9abe 9c61 683f
00000010: 54fe b6be 75d4 ad3e 4b12 72be 24ea b7be
